program(1.0)
[buildInfo = dict<tensor<string, []>, tensor<string, []>>({{"coremlc-component-MIL", "3500.14.1"}, {"coremlc-version", "3500.32.1"}, {"coremltools-component-torch", "2.9.1"}, {"coremltools-source-dialect", "TorchScript"}, {"coremltools-version", "9.0"}})]
{
    func main<ios15>(tensor<fp32, [1, 46]> mask, tensor<fp32, [1, 1012, 34]> obs) {
            tensor<bool, []> var_10 = const()[name = tensor<string, []>("op_10"), val = tensor<bool, []>(false)];
            tensor<string, []> input_1_pad_type_0 = const()[name = tensor<string, []>("input_1_pad_type_0"), val = tensor<string, []>("custom")];
            tensor<int32, [2]> input_1_pad_0 = const()[name = tensor<string, []>("input_1_pad_0"), val = tensor<int32, [2]>([1, 1])];
            tensor<int32, [1]> input_1_strides_0 = const()[name = tensor<string, []>("input_1_strides_0"), val = tensor<int32, [1]>([1])];
            tensor<int32, [1]> input_1_dilations_0 = const()[name = tensor<string, []>("input_1_dilations_0"), val = tensor<int32, [1]>([1])];
            tensor<int32, []> input_1_groups_0 = const()[name = tensor<string, []>("input_1_groups_0"), val = tensor<int32, []>(1)];
            tensor<string, []> obs_to_fp16_dtype_0 = const()[name = tensor<string, []>("obs_to_fp16_dtype_0"), val = tensor<string, []>("fp16")];
            tensor<fp16, [192, 1012, 3]> brain_encoder_net_0_weight_to_fp16 = const()[name = tensor<string, []>("brain_encoder_net_0_weight_to_fp16"), val = tensor<fp16, [192, 1012, 3]>(BLOBFILE(path = tensor<string, []>("@model_path/weights/weight.bin"), offset = tensor<uint64, []>(64)))];
            tensor<fp16, [1, 1012, 34]> obs_to_fp16 = cast(dtype = obs_to_fp16_dtype_0, x = obs)[name = tensor<string, []>("cast_7")];
            tensor<fp16, [1, 192, 34]> input_1_cast_fp16 = conv(dilations = input_1_dilations_0, groups = input_1_groups_0, pad = input_1_pad_0, pad_type = input_1_pad_type_0, strides = input_1_strides_0, weight = brain_encoder_net_0_weight_to_fp16, x = obs_to_fp16)[name = tensor<string, []>("input_1_cast_fp16")];
            tensor<fp16, [192]> brain_encoder_net_1_res_unit_0_running_mean_to_fp16 = const()[name = tensor<string, []>("brain_encoder_net_1_res_unit_0_running_mean_to_fp16"), val = tensor<fp16, [192]>(BLOBFILE(path = tensor<string, []>("@model_path/weights/weight.bin"), offset = tensor<uint64, []>(1165952)))];
            tensor<fp16, [192]> brain_encoder_net_1_res_unit_0_running_var_to_fp16 = const()[name = tensor<string, []>("brain_encoder_net_1_res_unit_0_running_var_to_fp16"), val = tensor<fp16, [192]>(BLOBFILE(path = tensor<string, []>("@model_path/weights/weight.bin"), offset = tensor<uint64, []>(1166400)))];
            tensor<fp16, [192]> brain_encoder_net_1_res_unit_0_weight_to_fp16 = const()[name = tensor<string, []>("brain_encoder_net_1_res_unit_0_weight_to_fp16"), val = tensor<fp16, [192]>(BLOBFILE(path = tensor<string, []>("@model_path/weights/weight.bin"), offset = tensor<uint64, []>(1166848)))];
            tensor<fp16, [192]> brain_encoder_net_1_res_unit_0_bias_to_fp16 = const()[name = tensor<string, []>("brain_encoder_net_1_res_unit_0_bias_to_fp16"), val = tensor<fp16, [192]>(BLOBFILE(path = tensor<string, []>("@model_path/weights/weight.bin"), offset = tensor<uint64, []>(1167296)))];
            tensor<fp16, []> var_6_to_fp16 = const()[name = tensor<string, []>("op_6_to_fp16"), val = tensor<fp16, []>(0x1.064p-10)];
            tensor<fp16, [1, 192, 34]> input_3_cast_fp16 = batch_norm(beta = brain_encoder_net_1_res_unit_0_bias_to_fp16, epsilon = var_6_to_fp16, gamma = brain_encoder_net_1_res_unit_0_weight_to_fp16, mean = brain_encoder_net_1_res_unit_0_running_mean_to_fp16, variance = brain_encoder_net_1_res_unit_0_running_var_to_fp16, x = input_1_cast_fp16)[name = tensor<string, []>("input_3_cast_fp16")];
            tensor<fp16, [1, 192, 34]> softplus_0_cast_fp16 = softplus(x = input_3_cast_fp16)[name = tensor<string, []>("softplus_0_cast_fp16")];
            tensor<fp16, [1, 192, 34]> tanh_0_cast_fp16 = tanh(x = softplus_0_cast_fp16)[name = tensor<string, []>("tanh_0_cast_fp16")];
            tensor<fp16, [1, 192, 34]> input_5_cast_fp16 = mul(x = input_3_cast_fp16, y = tanh_0_cast_fp16)[name = tensor<string, []>("input_5_cast_fp16")];
            tensor<string, []> input_7_pad_type_0 = const()[name = tensor<string, []>("input_7_pad_type_0"), val = tensor<string, []>("custom")];
            tensor<int32, [2]> input_7_pad_0 = const()[name = tensor<string, []>("input_7_pad_0"), val = tensor<int32, [2]>([1, 1])];
            tensor<int32, [1]> input_7_strides_0 = const()[name = tensor<string, []>("input_7_strides_0"), val = tensor<int32, [1]>([1])];
            tensor<int32, [1]> input_7_dilations_0 = const()[name = tensor<string, []>("input_7_dilations_0"), val = tensor<int32, [1]>([1])];
            tensor<int32, []> input_7_groups_0 = const()[name = tensor<string, []>("input_7_groups_0"), val = tensor<int32, []>(1)];
            tensor<fp16, [192, 192, 3]> const_0_to_fp16 = const()[name = tensor<string, []>("const_0_to_fp16"), val = tensor<fp16, [192, 192, 3]>(BLOBFILE(path = tensor<string, []>("@model_path/weights/weight.bin"), offset = tensor<uint64, []>(1167744)))];
            tensor<fp16, [192]> const_1_to_fp16 = const()[name = tensor<string, []>("const_1_to_fp16"), val = tensor<fp16, [192]>(BLOBFILE(path = tensor<string, []>("@model_path/weights/weight.bin"), offset = tensor<uint64, []>(1388992)))];
            tensor<fp16, [1, 192, 34]> input_9_cast_fp16 = conv(bias = const_1_to_fp16, dilations = input_7_dilations_0, groups = input_7_groups_0, pad = input_7_pad_0, pad_type = input_7_pad_type_0, strides = input_7_strides_0, weight = const_0_to_fp16, x = input_5_cast_fp16)[name = tensor<string, []>("input_9_cast_fp16")];
            tensor<fp16, [1, 192, 34]> softplus_1_cast_fp16 = softplus(x = input_9_cast_fp16)[name = tensor<string, []>("softplus_1_cast_fp16")];
            tensor<fp16, [1, 192, 34]> tanh_1_cast_fp16 = tanh(x = softplus_1_cast_fp16)[name = tensor<string, []>("tanh_1_cast_fp16")];
            tensor<fp16, [1, 192, 34]> input_11_cast_fp16 = mul(x = input_9_cast_fp16, y = tanh_1_cast_fp16)[name = tensor<string, []>("input_11_cast_fp16")];
            tensor<string, []> x_1_pad_type_0 = const()[name = tensor<string, []>("x_1_pad_type_0"), val = tensor<string, []>("custom")];
            tensor<int32, [2]> x_1_pad_0 = const()[name = tensor<string, []>("x_1_pad_0"), val = tensor<int32, [2]>([1, 1])];
            tensor<int32, [1]> x_1_strides_0 = const()[name = tensor<string, []>("x_1_strides_0"), val = tensor<int32, [1]>([1])];
            tensor<int32, [1]> x_1_dilations_0 = const()[name = tensor<string, []>("x_1_dilations_0"), val = tensor<int32, [1]>([1])];
            tensor<int32, []> x_1_groups_0 = const()[name = tensor<string, []>("x_1_groups_0"), val = tensor<int32, []>(1)];
            tensor<fp16, [192, 192, 3]> brain_encoder_net_1_res_unit_5_weight_to_fp16 = const()[name = tensor<string, []>("brain_encoder_net_1_res_unit_5_weight_to_fp16"), val = tensor<fp16, [192, 192, 3]>(BLOBFILE(path = tensor<string, []>("@model_path/weights/weight.bin"), offset = tensor<uint64, []>(1389440)))];
            tensor<fp16, [1, 192, 34]> x_1_cast_fp16 = conv(dilations = x_1_dilations_0, groups = x_1_groups_0, pad = x_1_pad_0, pad_type = x_1_pad_type_0, strides = x_1_strides_0, weight = brain_encoder_net_1_res_unit_5_weight_to_fp16, x = input_11_cast_fp16)[name = tensor<string, []>("x_1_cast_fp16")];
            tensor<int32, [1]> input_13_axes_0 = const()[name = tensor<string, []>("input_13_axes_0"), val = tensor<int32, [1]>([-1])];
            tensor<bool, []> input_13_keep_dims_0 = const()[name = tensor<string, []>("input_13_keep_dims_0"), val = tensor<bool, []>(false)];
            tensor<fp16, [1, 192]> input_13_cast_fp16 = reduce_mean(axes = input_13_axes_0, keep_dims = input_13_keep_dims_0, x = x_1_cast_fp16)[name = tensor<string, []>("input_13_cast_fp16")];
            tensor<fp16, [12, 192]> brain_encoder_net_1_ca_shared_mlp_0_weight_to_fp16 = const()[name = tensor<string, []>("brain_encoder_net_1_ca_shared_mlp_0_weight_to_fp16"), val = tensor<fp16, [12, 192]>(BLOBFILE(path = tensor<string, []>("@model_path/weights/weight.bin"), offset = tensor<uint64, []>(1610688)))];
            tensor<fp16, [12]> brain_encoder_net_1_ca_shared_mlp_0_bias_to_fp16 = const()[name = tensor<string, []>("brain_encoder_net_1_ca_shared_mlp_0_bias_to_fp16"), val = tensor<fp16, [12]>(BLOBFILE(path = tensor<string, []>("@model_path/weights/weight.bin"), offset = tensor<uint64, []>(1615360)))];
            tensor<fp16, [1, 12]> linear_0_cast_fp16 = linear(bias = brain_encoder_net_1_ca_shared_mlp_0_bias_to_fp16, weight = brain_encoder_net_1_ca_shared_mlp_0_weight_to_fp16, x = input_13_cast_fp16)[name = tensor<string, []>("linear_0_cast_fp16")];
            tensor<fp16, [1, 12]> softplus_2_cast_fp16 = softplus(x = linear_0_cast_fp16)[name = tensor<string, []>("softplus_2_cast_fp16")];
            tensor<fp16, [1, 12]> tanh_2_cast_fp16 = tanh(x = softplus_2_cast_fp16)[name = tensor<string, []>("tanh_2_cast_fp16")];
            tensor<fp16, [1, 12]> input_17_cast_fp16 = mul(x = linear_0_cast_fp16, y = tanh_2_cast_fp16)[name = tensor<string, []>("input_17_cast_fp16")];
            tensor<fp16, [192, 12]> brain_encoder_net_1_ca_shared_mlp_2_weight_to_fp16 = const()[name = tensor<string, []>("brain_encoder_net_1_ca_shared_mlp_2_weight_to_fp16"), val = tensor<fp16, [192, 12]>(BLOBFILE(path = tensor<string, []>("@model_path/weights/weight.bin"), offset = tensor<uint64, []>(1615488)))];
            tensor<fp16, [192]> brain_encoder_net_1_ca_shared_mlp_2_bias_to_fp16 = const()[name = tensor<string, []>("brain_encoder_net_1_ca_shared_mlp_2_bias_to_fp16"), val = tensor<fp16, [192]>(BLOBFILE(path = tensor<string, []>("@model_path/weights/weight.bin"), offset = tensor<uint64, []>(1620160)))];
            tensor<fp16, [1, 192]> linear_1_cast_fp16 = linear(bias = brain_encoder_net_1_ca_shared_mlp_2_bias_to_fp16, weight = brain_encoder_net_1_ca_shared_mlp_2_weight_to_fp16, x = input_17_cast_fp16)[name = tensor<string, []>("linear_1_cast_fp16")];
            tensor<int32, [1]> input_19_axes_0 = const()[name = tensor<string, []>("input_19_axes_0"), val = tensor<int32, [1]>([-1])];
            tensor<fp16, [1, 192]> input_19_cast_fp16 = reduce_max(axes = input_19_axes_0, keep_dims = var_10, x = x_1_cast_fp16)[name = tensor<string, []>("input_19_cast_fp16")];
            tensor<fp16, [1, 12]> linear_2_cast_fp16 = linear(bias = brain_encoder_net_1_ca_shared_mlp_0_bias_to_fp16, weight = brain_encoder_net_1_ca_shared_mlp_0_weight_to_fp16, x = input_19_cast_fp16)[name = tensor<string, []>("linear_2_cast_fp16")];
            tensor<fp16, [1, 12]> softplus_3_cast_fp16 = softplus(x = linear_2_cast_fp16)[name = tensor<string, []>("softplus_3_cast_fp16")];
            tensor<fp16, [1, 12]> tanh_3_cast_fp16 = tanh(x = softplus_3_cast_fp16)[name = tensor<string, []>("tanh_3_cast_fp16")];
            tensor<fp16, [1, 12]> input_23_cast_fp16 = mul(x = linear_2_cast_fp16, y = tanh_3_cast_fp16)[name = tensor<string, []>("input_23_cast_fp16")];
            tensor<fp16, [1, 192]> linear_3_cast_fp16 = linear(bias = brain_encoder_net_1_ca_shared_mlp_2_bias_to_fp16, weight = brain_encoder_net_1_ca_shared_mlp_2_weight_to_fp16, x = input_23_cast_fp16)[name = tensor<string, []>("linear_3_cast_fp16")];
            tensor<fp16, [1, 192]> var_118_cast_fp16 = add(x = linear_1_cast_fp16, y = linear_3_cast_fp16)[name = tensor<string, []>("op_118_cast_fp16")];
            tensor<fp16, [1, 192]> weight_11_cast_fp16 = sigmoid(x = var_118_cast_fp16)[name = tensor<string, []>("weight_11_cast_fp16")];
            tensor<int32, [1]> var_120_axes_0 = const()[name = tensor<string, []>("op_120_axes_0"), val = tensor<int32, [1]>([-1])];
            tensor<fp16, [1, 192, 1]> var_120_cast_fp16 = expand_dims(axes = var_120_axes_0, x = weight_11_cast_fp16)[name = tensor<string, []>("op_120_cast_fp16")];
            tensor<fp16, [1, 192, 34]> out_1_cast_fp16 = mul(x = var_120_cast_fp16, y = x_1_cast_fp16)[name = tensor<string, []>("out_1_cast_fp16")];
            tensor<fp16, [1, 192, 34]> input_25_cast_fp16 = add(x = out_1_cast_fp16, y = input_1_cast_fp16)[name = tensor<string, []>("input_25_cast_fp16")];
            tensor<fp16, [192]> brain_encoder_net_2_res_unit_0_running_mean_to_fp16 = const()[name = tensor<string, []>("brain_encoder_net_2_res_unit_0_running_mean_to_fp16"), val = tensor<fp16, [192]>(BLOBFILE(path = tensor<string, []>("@model_path/weights/weight.bin"), offset = tensor<uint64, []>(1620608)))];
            tensor<fp16, [192]> brain_encoder_net_2_res_unit_0_running_var_to_fp16 = const()[name = tensor<string, []>("brain_encoder_net_2_res_unit_0_running_var_to_fp16"), val = tensor<fp16, [192]>(BLOBFILE(path = tensor<string, []>("@model_path/weights/weight.bin"), offset = tensor<uint64, []>(1621056)))];
            tensor<fp16, [192]> brain_encoder_net_2_res_unit_0_weight_to_fp16 = const()[name = tensor<string, []>("brain_encoder_net_2_res_unit_0_weight_to_fp16"), val = tensor<fp16, [192]>(BLOBFILE(path = tensor<string, []>("@model_path/weights/weight.bin"), offset = tensor<uint64, []>(1621504)))];
            tensor<fp16, [192]> brain_encoder_net_2_res_unit_0_bias_to_fp16 = const()[name = tensor<string, []>("brain_encoder_net_2_res_unit_0_bias_to_fp16"), val = tensor<fp16, [192]>(BLOBFILE(path = tensor<string, []>("@model_path/weights/weight.bin"), offset = tensor<uint64, []>(1621952)))];
            tensor<fp16, [1, 192, 34]> input_27_cast_fp16 = batch_norm(beta = brain_encoder_net_2_res_unit_0_bias_to_fp16, epsilon = var_6_to_fp16, gamma = brain_encoder_net_2_res_unit_0_weight_to_fp16, mean = brain_encoder_net_2_res_unit_0_running_mean_to_fp16, variance = brain_encoder_net_2_res_unit_0_running_var_to_fp16, x = input_25_cast_fp16)[name = tensor<string, []>("input_27_cast_fp16")];
            tensor<fp16, [1, 192, 34]> softplus_4_cast_fp16 = softplus(x = input_27_cast_fp16)[name = tensor<string, []>("softplus_4_cast_fp16")];
            tensor<fp16, [1, 192, 34]> tanh_4_cast_fp16 = tanh(x = softplus_4_cast_fp16)[name = tensor<string, []>("tanh_4_cast_fp16")];
            tensor<fp16, [1, 192, 34]> input_29_cast_fp16 = mul(x = input_27_cast_fp16, y = tanh_4_cast_fp16)[name = tensor<string, []>("input_29_cast_fp16")];
            tensor<string, []> input_31_pad_type_0 = const()[name = tensor<string, []>("input_31_pad_type_0"), val = tensor<string, []>("custom")];
            tensor<int32, [2]> input_31_pad_0 = const()[name = tensor<string, []>("input_31_pad_0"), val = tensor<int32, [2]>([1, 1])];
            tensor<int32, [1]> input_31_strides_0 = const()[name = tensor<string, []>("input_31_strides_0"), val = tensor<int32, [1]>([1])];
            tensor<int32, [1]> input_31_dilations_0 = const()[name = tensor<string, []>("input_31_dilations_0"), val = tensor<int32, [1]>([1])];
            tensor<int32, []> input_31_groups_0 = const()[name = tensor<string, []>("input_31_groups_0"), val = tensor<int32, []>(1)];
            tensor<fp16, [192, 192, 3]> const_2_to_fp16 = const()[name = tensor<string, []>("const_2_to_fp16"), val = tensor<fp16, [192, 192, 3]>(BLOBFILE(path = tensor<string, []>("@model_path/weights/weight.bin"), offset = tensor<uint64, []>(1622400)))];
            tensor<fp16, [192]> const_3_to_fp16 = const()[name = tensor<string, []>("const_3_to_fp16"), val = tensor<fp16, [192]>(BLOBFILE(path = tensor<string, []>("@model_path/weights/weight.bin"), offset = tensor<uint64, []>(1843648)))];
            tensor<fp16, [1, 192, 34]> input_33_cast_fp16 = conv(bias = const_3_to_fp16, dilations = input_31_dilations_0, groups = input_31_groups_0, pad = input_31_pad_0, pad_type = input_31_pad_type_0, strides = input_31_strides_0, weight = const_2_to_fp16, x = input_29_cast_fp16)[name = tensor<string, []>("input_33_cast_fp16")];
            tensor<fp16, [1, 192, 34]> softplus_5_cast_fp16 = softplus(x = input_33_cast_fp16)[name = tensor<string, []>("softplus_5_cast_fp16")];
            tensor<fp16, [1, 192, 34]> tanh_5_cast_fp16 = tanh(x = softplus_5_cast_fp16)[name = tensor<string, []>("tanh_5_cast_fp16")];
            tensor<fp16, [1, 192, 34]> input_35_cast_fp16 = mul(x = input_33_cast_fp16, y = tanh_5_cast_fp16)[name = tensor<string, []>("input_35_cast_fp16")];
            tensor<string, []> x_3_pad_type_0 = const()[name = tensor<string, []>("x_3_pad_type_0"), val = tensor<string, []>("custom")];
            tensor<int32, [2]> x_3_pad_0 = const()[name = tensor<string, []>("x_3_pad_0"), val = tensor<int32, [2]>([1, 1])];
            tensor<int32, [1]> x_3_strides_0 = const()[name = tensor<string, []>("x_3_strides_0"), val = tensor<int32, [1]>([1])];
            tensor<int32, [1]> x_3_dilations_0 = const()[name = tensor<string, []>("x_3_dilations_0"), val = tensor<int32, [1]>([1])];
            tensor<int32, []> x_3_groups_0 = const()[name = tensor<string, []>("x_3_groups_0"), val = tensor<int32, []>(1)];
            tensor<fp16, [192, 192, 3]> brain_encoder_net_2_res_unit_5_weight_to_fp16 = const()[name = tensor<string, []>("brain_encoder_net_2_res_unit_5_weight_to_fp16"), val = tensor<fp16, [192, 192, 3]>(BLOBFILE(path = tensor<string, []>("@model_path/weights/weight.bin"), offset = tensor<uint64, []>(1844096)))];
            tensor<fp16, [1, 192, 34]> x_3_cast_fp16 = conv(dilations = x_3_dilations_0, groups = x_3_groups_0, pad = x_3_pad_0, pad_type = x_3_pad_type_0, strides = x_3_strides_0, weight = brain_encoder_net_2_res_unit_5_weight_to_fp16, x = input_35_cast_fp16)[name = tensor<string, []>("x_3_cast_fp16")];
            tensor<int32, [1]> input_37_axes_0 = const()[name = tensor<string, []>("input_37_axes_0"), val = tensor<int32, [1]>([-1])];
            tensor<bool, []> input_37_keep_dims_0 = const()[name = tensor<string, []>("input_37_keep_dims_0"), val = tensor<bool, []>(false)];
            tensor<fp16, [1, 192]> input_37_cast_fp16 = reduce_mean(axes = input_37_axes_0, keep_dims = input_37_keep_dims_0, x = x_3_cast_fp16)[name = tensor<string, []>("input_37_cast_fp16")];
            tensor<fp16, [12, 192]> brain_encoder_net_2_ca_shared_mlp_0_weight_to_fp16 = const()[name = tensor<string, []>("brain_encoder_net_2_ca_shared_mlp_0_weight_to_fp16"), val = tensor<fp16, [12, 192]>(BLOBFILE(path = tensor<string, []>("@model_path/weights/weight.bin"), offset = tensor<uint64, []>(2065344)))];
            tensor<fp16, [12]> brain_encoder_net_2_ca_shared_mlp_0_bias_to_fp16 = const()[name = tensor<string, []>("brain_encoder_net_2_ca_shared_mlp_0_bias_to_fp16"), val = tensor<fp16, [12]>(BLOBFILE(path = tensor<string, []>("@model_path/weights/weight.bin"), offset = tensor<uint64, []>(2070016)))];
            tensor<fp16, [1, 12]> linear_4_cast_fp16 = linear(bias = brain_encoder_net_2_ca_shared_mlp_0_bias_to_fp16, weight = brain_encoder_net_2_ca_shared_mlp_0_weight_to_fp16, x = input_37_cast_fp16)[name = tensor<string, []>("linear_4_cast_fp16")];
            tensor<fp16, [1, 12]> softplus_6_cast_fp16 = softplus(x = linear_4_cast_fp16)[name = tensor<string, []>("softplus_6_cast_fp16")];
            tensor<fp16, [1, 12]> tanh_6_cast_fp16 = tanh(x = softplus_6_cast_fp16)[name = tensor<string, []>("tanh_6_cast_fp16")];
            tensor<fp16, [1, 12]> input_41_cast_fp16 = mul(x = linear_4_cast_fp16, y = tanh_6_cast_fp16)[name = tensor<string, []>("input_41_cast_fp16")];
            tensor<fp16, [192, 12]> brain_encoder_net_2_ca_shared_mlp_2_weight_to_fp16 = const()[name = tensor<string, []>("brain_encoder_net_2_ca_shared_mlp_2_weight_to_fp16"), val = tensor<fp16, [192, 12]>(BLOBFILE(path = tensor<string, []>("@model_path/weights/weight.bin"), offset = tensor<uint64, []>(2070144)))];
            tensor<fp16, [192]> brain_encoder_net_2_ca_shared_mlp_2_bias_to_fp16 = const()[name = tensor<string, []>("brain_encoder_net_2_ca_shared_mlp_2_bias_to_fp16"), val = tensor<fp16, [192]>(BLOBFILE(path = tensor<string, []>("@model_path/weights/weight.bin"), offset = tensor<uint64, []>(2074816)))];
            tensor<fp16, [1, 192]> linear_5_cast_fp16 = linear(bias = brain_encoder_net_2_ca_shared_mlp_2_bias_to_fp16, weight = brain_encoder_net_2_ca_shared_mlp_2_weight_to_fp16, x = input_41_cast_fp16)[name = tensor<string, []>("linear_5_cast_fp16")];
            tensor<int32, [1]> input_43_axes_0 = const()[name = tensor<string, []>("input_43_axes_0"), val = tensor<int32, [1]>([-1])];
            tensor<fp16, [1, 192]> input_43_cast_fp16 = reduce_max(axes = input_43_axes_0, keep_dims = var_10, x = x_3_cast_fp16)[name = tensor<string, []>("input_43_cast_fp16")];
            tensor<fp16, [1, 12]> linear_6_cast_fp16 = linear(bias = brain_encoder_net_2_ca_shared_mlp_0_bias_to_fp16, weight = brain_encoder_net_2_ca_shared_mlp_0_weight_to_fp16, x = input_43_cast_fp16)[name = tensor<string, []>("linear_6_cast_fp16")];
            tensor<fp16, [1, 12]> softplus_7_cast_fp16 = softplus(x = linear_6_cast_fp16)[name = tensor<string, []>("softplus_7_cast_fp16")];
            tensor<fp16, [1, 12]> tanh_7_cast_fp16 = tanh(x = softplus_7_cast_fp16)[name = tensor<string, []>("tanh_7_cast_fp16")];
            tensor<fp16, [1, 12]> input_47_cast_fp16 = mul(x = linear_6_cast_fp16, y = tanh_7_cast_fp16)[name = tensor<string, []>("input_47_cast_fp16")];
            tensor<fp16, [1, 192]> linear_7_cast_fp16 = linear(bias = brain_encoder_net_2_ca_shared_mlp_2_bias_to_fp16, weight = brain_encoder_net_2_ca_shared_mlp_2_weight_to_fp16, x = input_47_cast_fp16)[name = tensor<string, []>("linear_7_cast_fp16")];
            tensor<fp16, [1, 192]> var_176_cast_fp16 = add(x = linear_5_cast_fp16, y = linear_7_cast_fp16)[name = tensor<string, []>("op_176_cast_fp16")];
            tensor<fp16, [1, 192]> weight_21_cast_fp16 = sigmoid(x = var_176_cast_fp16)[name = tensor<string, []>("weight_21_cast_fp16")];
            tensor<int32, [1]> var_178_axes_0 = const()[name = tensor<string, []>("op_178_axes_0"), val = tensor<int32, [1]>([-1])];
            tensor<fp16, [1, 192, 1]> var_178_cast_fp16 = expand_dims(axes = var_178_axes_0, x = weight_21_cast_fp16)[name = tensor<string, []>("op_178_cast_fp16")];
            tensor<fp16, [1, 192, 34]> out_3_cast_fp16 = mul(x = var_178_cast_fp16, y = x_3_cast_fp16)[name = tensor<string, []>("out_3_cast_fp16")];
            tensor<fp16, [1, 192, 34]> input_49_cast_fp16 = add(x = out_3_cast_fp16, y = input_25_cast_fp16)[name = tensor<string, []>("input_49_cast_fp16")];
            tensor<fp16, [192]> brain_encoder_net_3_res_unit_0_running_mean_to_fp16 = const()[name = tensor<string, []>("brain_encoder_net_3_res_unit_0_running_mean_to_fp16"), val = tensor<fp16, [192]>(BLOBFILE(path = tensor<string, []>("@model_path/weights/weight.bin"), offset = tensor<uint64, []>(2075264)))];
            tensor<fp16, [192]> brain_encoder_net_3_res_unit_0_running_var_to_fp16 = const()[name = tensor<string, []>("brain_encoder_net_3_res_unit_0_running_var_to_fp16"), val = tensor<fp16, [192]>(BLOBFILE(path = tensor<string, []>("@model_path/weights/weight.bin"), offset = tensor<uint64, []>(2075712)))];
            tensor<fp16, [192]> brain_encoder_net_3_res_unit_0_weight_to_fp16 = const()[name = tensor<string, []>("brain_encoder_net_3_res_unit_0_weight_to_fp16"), val = tensor<fp16, [192]>(BLOBFILE(path = tensor<string, []>("@model_path/weights/weight.bin"), offset = tensor<uint64, []>(2076160)))];
            tensor<fp16, [192]> brain_encoder_net_3_res_unit_0_bias_to_fp16 = const()[name = tensor<string, []>("brain_encoder_net_3_res_unit_0_bias_to_fp16"), val = tensor<fp16, [192]>(BLOBFILE(path = tensor<string, []>("@model_path/weights/weight.bin"), offset = tensor<uint64, []>(2076608)))];
            tensor<fp16, [1, 192, 34]> input_51_cast_fp16 = batch_norm(beta = brain_encoder_net_3_res_unit_0_bias_to_fp16, epsilon = var_6_to_fp16, gamma = brain_encoder_net_3_res_unit_0_weight_to_fp16, mean = brain_encoder_net_3_res_unit_0_running_mean_to_fp16, variance = brain_encoder_net_3_res_unit_0_running_var_to_fp16, x = input_49_cast_fp16)[name = tensor<string, []>("input_51_cast_fp16")];
            tensor<fp16, [1, 192, 34]> softplus_8_cast_fp16 = softplus(x = input_51_cast_fp16)[name = tensor<string, []>("softplus_8_cast_fp16")];
            tensor<fp16, [1, 192, 34]> tanh_8_cast_fp16 = tanh(x = softplus_8_cast_fp16)[name = tensor<string, []>("tanh_8_cast_fp16")];
            tensor<fp16, [1, 192, 34]> input_53_cast_fp16 = mul(x = input_51_cast_fp16, y = tanh_8_cast_fp16)[name = tensor<string, []>("input_53_cast_fp16")];
            tensor<string, []> input_55_pad_type_0 = const()[name = tensor<string, []>("input_55_pad_type_0"), val = tensor<string, []>("custom")];
            tensor<int32, [2]> input_55_pad_0 = const()[name = tensor<string, []>("input_55_pad_0"), val = tensor<int32, [2]>([1, 1])];
            tensor<int32, [1]> input_55_strides_0 = const()[name = tensor<string, []>("input_55_strides_0"), val = tensor<int32, [1]>([1])];
            tensor<int32, [1]> input_55_dilations_0 = const()[name = tensor<string, []>("input_55_dilations_0"), val = tensor<int32, [1]>([1])];
            tensor<int32, []> input_55_groups_0 = const()[name = tensor<string, []>("input_55_groups_0"), val = tensor<int32, []>(1)];
            tensor<fp16, [192, 192, 3]> const_4_to_fp16 = const()[name = tensor<string, []>("const_4_to_fp16"), val = tensor<fp16, [192, 192, 3]>(BLOBFILE(path = tensor<string, []>("@model_path/weights/weight.bin"), offset = tensor<uint64, []>(2077056)))];
            tensor<fp16, [192]> const_5_to_fp16 = const()[name = tensor<string, []>("const_5_to_fp16"), val = tensor<fp16, [192]>(BLOBFILE(path = tensor<string, []>("@model_path/weights/weight.bin"), offset = tensor<uint64, []>(2298304)))];
            tensor<fp16, [1, 192, 34]> input_57_cast_fp16 = conv(bias = const_5_to_fp16, dilations = input_55_dilations_0, groups = input_55_groups_0, pad = input_55_pad_0, pad_type = input_55_pad_type_0, strides = input_55_strides_0, weight = const_4_to_fp16, x = input_53_cast_fp16)[name = tensor<string, []>("input_57_cast_fp16")];
            tensor<fp16, [1, 192, 34]> softplus_9_cast_fp16 = softplus(x = input_57_cast_fp16)[name = tensor<string, []>("softplus_9_cast_fp16")];
            tensor<fp16, [1, 192, 34]> tanh_9_cast_fp16 = tanh(x = softplus_9_cast_fp16)[name = tensor<string, []>("tanh_9_cast_fp16")];
            tensor<fp16, [1, 192, 34]> input_59_cast_fp16 = mul(x = input_57_cast_fp16, y = tanh_9_cast_fp16)[name = tensor<string, []>("input_59_cast_fp16")];
            tensor<string, []> x_5_pad_type_0 = const()[name = tensor<string, []>("x_5_pad_type_0"), val = tensor<string, []>("custom")];
            tensor<int32, [2]> x_5_pad_0 = const()[name = tensor<string, []>("x_5_pad_0"), val = tensor<int32, [2]>([1, 1])];
            tensor<int32, [1]> x_5_strides_0 = const()[name = tensor<string, []>("x_5_strides_0"), val = tensor<int32, [1]>([1])];
            tensor<int32, [1]> x_5_dilations_0 = const()[name = tensor<string, []>("x_5_dilations_0"), val = tensor<int32, [1]>([1])];
            tensor<int32, []> x_5_groups_0 = const()[name = tensor<string, []>("x_5_groups_0"), val = tensor<int32, []>(1)];
            tensor<fp16, [192, 192, 3]> brain_encoder_net_3_res_unit_5_weight_to_fp16 = const()[name = tensor<string, []>("brain_encoder_net_3_res_unit_5_weight_to_fp16"), val = tensor<fp16, [192, 192, 3]>(BLOBFILE(path = tensor<string, []>("@model_path/weights/weight.bin"), offset = tensor<uint64, []>(2298752)))];
            tensor<fp16, [1, 192, 34]> x_5_cast_fp16 = conv(dilations = x_5_dilations_0, groups = x_5_groups_0, pad = x_5_pad_0, pad_type = x_5_pad_type_0, strides = x_5_strides_0, weight = brain_encoder_net_3_res_unit_5_weight_to_fp16, x = input_59_cast_fp16)[name = tensor<string, []>("x_5_cast_fp16")];
            tensor<int32, [1]> input_61_axes_0 = const()[name = tensor<string, []>("input_61_axes_0"), val = tensor<int32, [1]>([-1])];
            tensor<bool, []> input_61_keep_dims_0 = const()[name = tensor<string, []>("input_61_keep_dims_0"), val = tensor<bool, []>(false)];
            tensor<fp16, [1, 192]> input_61_cast_fp16 = reduce_mean(axes = input_61_axes_0, keep_dims = input_61_keep_dims_0, x = x_5_cast_fp16)[name = tensor<string, []>("input_61_cast_fp16")];
            tensor<fp16, [12, 192]> brain_encoder_net_3_ca_shared_mlp_0_weight_to_fp16 = const()[name = tensor<string, []>("brain_encoder_net_3_ca_shared_mlp_0_weight_to_fp16"), val = tensor<fp16, [12, 192]>(BLOBFILE(path = tensor<string, []>("@model_path/weights/weight.bin"), offset = tensor<uint64, []>(2520000)))];
            tensor<fp16, [12]> brain_encoder_net_3_ca_shared_mlp_0_bias_to_fp16 = const()[name = tensor<string, []>("brain_encoder_net_3_ca_shared_mlp_0_bias_to_fp16"), val = tensor<fp16, [12]>(BLOBFILE(path = tensor<string, []>("@model_path/weights/weight.bin"), offset = tensor<uint64, []>(2524672)))];
            tensor<fp16, [1, 12]> linear_8_cast_fp16 = linear(bias = brain_encoder_net_3_ca_shared_mlp_0_bias_to_fp16, weight = brain_encoder_net_3_ca_shared_mlp_0_weight_to_fp16, x = input_61_cast_fp16)[name = tensor<string, []>("linear_8_cast_fp16")];
            tensor<fp16, [1, 12]> softplus_10_cast_fp16 = softplus(x = linear_8_cast_fp16)[name = tensor<string, []>("softplus_10_cast_fp16")];
            tensor<fp16, [1, 12]> tanh_10_cast_fp16 = tanh(x = softplus_10_cast_fp16)[name = tensor<string, []>("tanh_10_cast_fp16")];
            tensor<fp16, [1, 12]> input_65_cast_fp16 = mul(x = linear_8_cast_fp16, y = tanh_10_cast_fp16)[name = tensor<string, []>("input_65_cast_fp16")];
            tensor<fp16, [192, 12]> brain_encoder_net_3_ca_shared_mlp_2_weight_to_fp16 = const()[name = tensor<string, []>("brain_encoder_net_3_ca_shared_mlp_2_weight_to_fp16"), val = tensor<fp16, [192, 12]>(BLOBFILE(path = tensor<string, []>("@model_path/weights/weight.bin"), offset = tensor<uint64, []>(2524800)))];
            tensor<fp16, [192]> brain_encoder_net_3_ca_shared_mlp_2_bias_to_fp16 = const()[name = tensor<string, []>("brain_encoder_net_3_ca_shared_mlp_2_bias_to_fp16"), val = tensor<fp16, [192]>(BLOBFILE(path = tensor<string, []>("@model_path/weights/weight.bin"), offset = tensor<uint64, []>(2529472)))];
            tensor<fp16, [1, 192]> linear_9_cast_fp16 = linear(bias = brain_encoder_net_3_ca_shared_mlp_2_bias_to_fp16, weight = brain_encoder_net_3_ca_shared_mlp_2_weight_to_fp16, x = input_65_cast_fp16)[name = tensor<string, []>("linear_9_cast_fp16")];
            tensor<int32, [1]> input_67_axes_0 = const()[name = tensor<string, []>("input_67_axes_0"), val = tensor<int32, [1]>([-1])];
            tensor<fp16, [1, 192]> input_67_cast_fp16 = reduce_max(axes = input_67_axes_0, keep_dims = var_10, x = x_5_cast_fp16)[name = tensor<string, []>("input_67_cast_fp16")];
            tensor<fp16, [1, 12]> linear_10_cast_fp16 = linear(bias = brain_encoder_net_3_ca_shared_mlp_0_bias_to_fp16, weight = brain_encoder_net_3_ca_shared_mlp_0_weight_to_fp16, x = input_67_cast_fp16)[name = tensor<string, []>("linear_10_cast_fp16")];
            tensor<fp16, [1, 12]> softplus_11_cast_fp16 = softplus(x = linear_10_cast_fp16)[name = tensor<string, []>("softplus_11_cast_fp16")];
            tensor<fp16, [1, 12]> tanh_11_cast_fp16 = tanh(x = softplus_11_cast_fp16)[name = tensor<string, []>("tanh_11_cast_fp16")];
            tensor<fp16, [1, 12]> input_71_cast_fp16 = mul(x = linear_10_cast_fp16, y = tanh_11_cast_fp16)[name = tensor<string, []>("input_71_cast_fp16")];
            tensor<fp16, [1, 192]> linear_11_cast_fp16 = linear(bias = brain_encoder_net_3_ca_shared_mlp_2_bias_to_fp16, weight = brain_encoder_net_3_ca_shared_mlp_2_weight_to_fp16, x = input_71_cast_fp16)[name = tensor<string, []>("linear_11_cast_fp16")];
            tensor<fp16, [1, 192]> var_234_cast_fp16 = add(x = linear_9_cast_fp16, y = linear_11_cast_fp16)[name = tensor<string, []>("op_234_cast_fp16")];
            tensor<fp16, [1, 192]> weight_31_cast_fp16 = sigmoid(x = var_234_cast_fp16)[name = tensor<string, []>("weight_31_cast_fp16")];
            tensor<int32, [1]> var_236_axes_0 = const()[name = tensor<string, []>("op_236_axes_0"), val = tensor<int32, [1]>([-1])];
            tensor<fp16, [1, 192, 1]> var_236_cast_fp16 = expand_dims(axes = var_236_axes_0, x = weight_31_cast_fp16)[name = tensor<string, []>("op_236_cast_fp16")];
            tensor<fp16, [1, 192, 34]> out_5_cast_fp16 = mul(x = var_236_cast_fp16, y = x_5_cast_fp16)[name = tensor<string, []>("out_5_cast_fp16")];
            tensor<fp16, [1, 192, 34]> input_73_cast_fp16 = add(x = out_5_cast_fp16, y = input_49_cast_fp16)[name = tensor<string, []>("input_73_cast_fp16")];
            tensor<fp16, [192]> brain_encoder_net_4_res_unit_0_running_mean_to_fp16 = const()[name = tensor<string, []>("brain_encoder_net_4_res_unit_0_running_mean_to_fp16"), val = tensor<fp16, [192]>(BLOBFILE(path = tensor<string, []>("@model_path/weights/weight.bin"), offset = tensor<uint64, []>(2529920)))];
            tensor<fp16, [192]> brain_encoder_net_4_res_unit_0_running_var_to_fp16 = const()[name = tensor<string, []>("brain_encoder_net_4_res_unit_0_running_var_to_fp16"), val = tensor<fp16, [192]>(BLOBFILE(path = tensor<string, []>("@model_path/weights/weight.bin"), offset = tensor<uint64, []>(2530368)))];
            tensor<fp16, [192]> brain_encoder_net_4_res_unit_0_weight_to_fp16 = const()[name = tensor<string, []>("brain_encoder_net_4_res_unit_0_weight_to_fp16"), val = tensor<fp16, [192]>(BLOBFILE(path = tensor<string, []>("@model_path/weights/weight.bin"), offset = tensor<uint64, []>(2530816)))];
            tensor<fp16, [192]> brain_encoder_net_4_res_unit_0_bias_to_fp16 = const()[name = tensor<string, []>("brain_encoder_net_4_res_unit_0_bias_to_fp16"), val = tensor<fp16, [192]>(BLOBFILE(path = tensor<string, []>("@model_path/weights/weight.bin"), offset = tensor<uint64, []>(2531264)))];
            tensor<fp16, [1, 192, 34]> input_75_cast_fp16 = batch_norm(beta = brain_encoder_net_4_res_unit_0_bias_to_fp16, epsilon = var_6_to_fp16, gamma = brain_encoder_net_4_res_unit_0_weight_to_fp16, mean = brain_encoder_net_4_res_unit_0_running_mean_to_fp16, variance = brain_encoder_net_4_res_unit_0_running_var_to_fp16, x = input_73_cast_fp16)[name = tensor<string, []>("input_75_cast_fp16")];
            tensor<fp16, [1, 192, 34]> softplus_12_cast_fp16 = softplus(x = input_75_cast_fp16)[name = tensor<string, []>("softplus_12_cast_fp16")];
            tensor<fp16, [1, 192, 34]> tanh_12_cast_fp16 = tanh(x = softplus_12_cast_fp16)[name = tensor<string, []>("tanh_12_cast_fp16")];
            tensor<fp16, [1, 192, 34]> input_77_cast_fp16 = mul(x = input_75_cast_fp16, y = tanh_12_cast_fp16)[name = tensor<string, []>("input_77_cast_fp16")];
            tensor<string, []> input_79_pad_type_0 = const()[name = tensor<string, []>("input_79_pad_type_0"), val = tensor<string, []>("custom")];
            tensor<int32, [2]> input_79_pad_0 = const()[name = tensor<string, []>("input_79_pad_0"), val = tensor<int32, [2]>([1, 1])];
            tensor<int32, [1]> input_79_strides_0 = const()[name = tensor<string, []>("input_79_strides_0"), val = tensor<int32, [1]>([1])];
            tensor<int32, [1]> input_79_dilations_0 = const()[name = tensor<string, []>("input_79_dilations_0"), val = tensor<int32, [1]>([1])];
            tensor<int32, []> input_79_groups_0 = const()[name = tensor<string, []>("input_79_groups_0"), val = tensor<int32, []>(1)];
            tensor<fp16, [192, 192, 3]> const_6_to_fp16 = const()[name = tensor<string, []>("const_6_to_fp16"), val = tensor<fp16, [192, 192, 3]>(BLOBFILE(path = tensor<string, []>("@model_path/weights/weight.bin"), offset = tensor<uint64, []>(2531712)))];
            tensor<fp16, [192]> const_7_to_fp16 = const()[name = tensor<string, []>("const_7_to_fp16"), val = tensor<fp16, [192]>(BLOBFILE(path = tensor<string, []>("@model_path/weights/weight.bin"), offset = tensor<uint64, []>(2752960)))];
            tensor<fp16, [1, 192, 34]> input_81_cast_fp16 = conv(bias = const_7_to_fp16, dilations = input_79_dilations_0, groups = input_79_groups_0, pad = input_79_pad_0, pad_type = input_79_pad_type_0, strides = input_79_strides_0, weight = const_6_to_fp16, x = input_77_cast_fp16)[name = tensor<string, []>("input_81_cast_fp16")];
            tensor<fp16, [1, 192, 34]> softplus_13_cast_fp16 = softplus(x = input_81_cast_fp16)[name = tensor<string, []>("softplus_13_cast_fp16")];
            tensor<fp16, [1, 192, 34]> tanh_13_cast_fp16 = tanh(x = softplus_13_cast_fp16)[name = tensor<string, []>("tanh_13_cast_fp16")];
            tensor<fp16, [1, 192, 34]> input_83_cast_fp16 = mul(x = input_81_cast_fp16, y = tanh_13_cast_fp16)[name = tensor<string, []>("input_83_cast_fp16")];
            tensor<string, []> x_7_pad_type_0 = const()[name = tensor<string, []>("x_7_pad_type_0"), val = tensor<string, []>("custom")];
            tensor<int32, [2]> x_7_pad_0 = const()[name = tensor<string, []>("x_7_pad_0"), val = tensor<int32, [2]>([1, 1])];
            tensor<int32, [1]> x_7_strides_0 = const()[name = tensor<string, []>("x_7_strides_0"), val = tensor<int32, [1]>([1])];
            tensor<int32, [1]> x_7_dilations_0 = const()[name = tensor<string, []>("x_7_dilations_0"), val = tensor<int32, [1]>([1])];
            tensor<int32, []> x_7_groups_0 = const()[name = tensor<string, []>("x_7_groups_0"), val = tensor<int32, []>(1)];
            tensor<fp16, [192, 192, 3]> brain_encoder_net_4_res_unit_5_weight_to_fp16 = const()[name = tensor<string, []>("brain_encoder_net_4_res_unit_5_weight_to_fp16"), val = tensor<fp16, [192, 192, 3]>(BLOBFILE(path = tensor<string, []>("@model_path/weights/weight.bin"), offset = tensor<uint64, []>(2753408)))];
            tensor<fp16, [1, 192, 34]> x_7_cast_fp16 = conv(dilations = x_7_dilations_0, groups = x_7_groups_0, pad = x_7_pad_0, pad_type = x_7_pad_type_0, strides = x_7_strides_0, weight = brain_encoder_net_4_res_unit_5_weight_to_fp16, x = input_83_cast_fp16)[name = tensor<string, []>("x_7_cast_fp16")];
            tensor<int32, [1]> input_85_axes_0 = const()[name = tensor<string, []>("input_85_axes_0"), val = tensor<int32, [1]>([-1])];
            tensor<bool, []> input_85_keep_dims_0 = const()[name = tensor<string, []>("input_85_keep_dims_0"), val = tensor<bool, []>(false)];
            tensor<fp16, [1, 192]> input_85_cast_fp16 = reduce_mean(axes = input_85_axes_0, keep_dims = input_85_keep_dims_0, x = x_7_cast_fp16)[name = tensor<string, []>("input_85_cast_fp16")];
            tensor<fp16, [12, 192]> brain_encoder_net_4_ca_shared_mlp_0_weight_to_fp16 = const()[name = tensor<string, []>("brain_encoder_net_4_ca_shared_mlp_0_weight_to_fp16"), val = tensor<fp16, [12, 192]>(BLOBFILE(path = tensor<string, []>("@model_path/weights/weight.bin"), offset = tensor<uint64, []>(2974656)))];
            tensor<fp16, [12]> brain_encoder_net_4_ca_shared_mlp_0_bias_to_fp16 = const()[name = tensor<string, []>("brain_encoder_net_4_ca_shared_mlp_0_bias_to_fp16"), val = tensor<fp16, [12]>(BLOBFILE(path = tensor<string, []>("@model_path/weights/weight.bin"), offset = tensor<uint64, []>(2979328)))];
            tensor<fp16, [1, 12]> linear_12_cast_fp16 = linear(bias = brain_encoder_net_4_ca_shared_mlp_0_bias_to_fp16, weight = brain_encoder_net_4_ca_shared_mlp_0_weight_to_fp16, x = input_85_cast_fp16)[name = tensor<string, []>("linear_12_cast_fp16")];
            tensor<fp16, [1, 12]> softplus_14_cast_fp16 = softplus(x = linear_12_cast_fp16)[name = tensor<string, []>("softplus_14_cast_fp16")];
            tensor<fp16, [1, 12]> tanh_14_cast_fp16 = tanh(x = softplus_14_cast_fp16)[name = tensor<string, []>("tanh_14_cast_fp16")];
            tensor<fp16, [1, 12]> input_89_cast_fp16 = mul(x = linear_12_cast_fp16, y = tanh_14_cast_fp16)[name = tensor<string, []>("input_89_cast_fp16")];
            tensor<fp16, [192, 12]> brain_encoder_net_4_ca_shared_mlp_2_weight_to_fp16 = const()[name = tensor<string, []>("brain_encoder_net_4_ca_shared_mlp_2_weight_to_fp16"), val = tensor<fp16, [192, 12]>(BLOBFILE(path = tensor<string, []>("@model_path/weights/weight.bin"), offset = tensor<uint64, []>(2979456)))];
            tensor<fp16, [192]> brain_encoder_net_4_ca_shared_mlp_2_bias_to_fp16 = const()[name = tensor<string, []>("brain_encoder_net_4_ca_shared_mlp_2_bias_to_fp16"), val = tensor<fp16, [192]>(BLOBFILE(path = tensor<string, []>("@model_path/weights/weight.bin"), offset = tensor<uint64, []>(2984128)))];
            tensor<fp16, [1, 192]> linear_13_cast_fp16 = linear(bias = brain_encoder_net_4_ca_shared_mlp_2_bias_to_fp16, weight = brain_encoder_net_4_ca_shared_mlp_2_weight_to_fp16, x = input_89_cast_fp16)[name = tensor<string, []>("linear_13_cast_fp16")];
            tensor<int32, [1]> input_91_axes_0 = const()[name = tensor<string, []>("input_91_axes_0"), val = tensor<int32, [1]>([-1])];
            tensor<fp16, [1, 192]> input_91_cast_fp16 = reduce_max(axes = input_91_axes_0, keep_dims = var_10, x = x_7_cast_fp16)[name = tensor<string, []>("input_91_cast_fp16")];
            tensor<fp16, [1, 12]> linear_14_cast_fp16 = linear(bias = brain_encoder_net_4_ca_shared_mlp_0_bias_to_fp16, weight = brain_encoder_net_4_ca_shared_mlp_0_weight_to_fp16, x = input_91_cast_fp16)[name = tensor<string, []>("linear_14_cast_fp16")];
            tensor<fp16, [1, 12]> softplus_15_cast_fp16 = softplus(x = linear_14_cast_fp16)[name = tensor<string, []>("softplus_15_cast_fp16")];
            tensor<fp16, [1, 12]> tanh_15_cast_fp16 = tanh(x = softplus_15_cast_fp16)[name = tensor<string, []>("tanh_15_cast_fp16")];
            tensor<fp16, [1, 12]> input_95_cast_fp16 = mul(x = linear_14_cast_fp16, y = tanh_15_cast_fp16)[name = tensor<string, []>("input_95_cast_fp16")];
            tensor<fp16, [1, 192]> linear_15_cast_fp16 = linear(bias = brain_encoder_net_4_ca_shared_mlp_2_bias_to_fp16, weight = brain_encoder_net_4_ca_shared_mlp_2_weight_to_fp16, x = input_95_cast_fp16)[name = tensor<string, []>("linear_15_cast_fp16")];
            tensor<fp16, [1, 192]> var_292_cast_fp16 = add(x = linear_13_cast_fp16, y = linear_15_cast_fp16)[name = tensor<string, []>("op_292_cast_fp16")];
            tensor<fp16, [1, 192]> weight_41_cast_fp16 = sigmoid(x = var_292_cast_fp16)[name = tensor<string, []>("weight_41_cast_fp16")];
            tensor<int32, [1]> var_294_axes_0 = const()[name = tensor<string, []>("op_294_axes_0"), val = tensor<int32, [1]>([-1])];
            tensor<fp16, [1, 192, 1]> var_294_cast_fp16 = expand_dims(axes = var_294_axes_0, x = weight_41_cast_fp16)[name = tensor<string, []>("op_294_cast_fp16")];
            tensor<fp16, [1, 192, 34]> out_7_cast_fp16 = mul(x = var_294_cast_fp16, y = x_7_cast_fp16)[name = tensor<string, []>("out_7_cast_fp16")];
            tensor<fp16, [1, 192, 34]> input_97_cast_fp16 = add(x = out_7_cast_fp16, y = input_73_cast_fp16)[name = tensor<string, []>("input_97_cast_fp16")];
            tensor<fp16, [192]> brain_encoder_net_5_res_unit_0_running_mean_to_fp16 = const()[name = tensor<string, []>("brain_encoder_net_5_res_unit_0_running_mean_to_fp16"), val = tensor<fp16, [192]>(BLOBFILE(path = tensor<string, []>("@model_path/weights/weight.bin"), offset = tensor<uint64, []>(2984576)))];
            tensor<fp16, [192]> brain_encoder_net_5_res_unit_0_running_var_to_fp16 = const()[name = tensor<string, []>("brain_encoder_net_5_res_unit_0_running_var_to_fp16"), val = tensor<fp16, [192]>(BLOBFILE(path = tensor<string, []>("@model_path/weights/weight.bin"), offset = tensor<uint64, []>(2985024)))];
            tensor<fp16, [192]> brain_encoder_net_5_res_unit_0_weight_to_fp16 = const()[name = tensor<string, []>("brain_encoder_net_5_res_unit_0_weight_to_fp16"), val = tensor<fp16, [192]>(BLOBFILE(path = tensor<string, []>("@model_path/weights/weight.bin"), offset = tensor<uint64, []>(2985472)))];
            tensor<fp16, [192]> brain_encoder_net_5_res_unit_0_bias_to_fp16 = const()[name = tensor<string, []>("brain_encoder_net_5_res_unit_0_bias_to_fp16"), val = tensor<fp16, [192]>(BLOBFILE(path = tensor<string, []>("@model_path/weights/weight.bin"), offset = tensor<uint64, []>(2985920)))];
            tensor<fp16, [1, 192, 34]> input_99_cast_fp16 = batch_norm(beta = brain_encoder_net_5_res_unit_0_bias_to_fp16, epsilon = var_6_to_fp16, gamma = brain_encoder_net_5_res_unit_0_weight_to_fp16, mean = brain_encoder_net_5_res_unit_0_running_mean_to_fp16, variance = brain_encoder_net_5_res_unit_0_running_var_to_fp16, x = input_97_cast_fp16)[name = tensor<string, []>("input_99_cast_fp16")];
            tensor<fp16, [1, 192, 34]> softplus_16_cast_fp16 = softplus(x = input_99_cast_fp16)[name = tensor<string, []>("softplus_16_cast_fp16")];
            tensor<fp16, [1, 192, 34]> tanh_16_cast_fp16 = tanh(x = softplus_16_cast_fp16)[name = tensor<string, []>("tanh_16_cast_fp16")];
            tensor<fp16, [1, 192, 34]> input_101_cast_fp16 = mul(x = input_99_cast_fp16, y = tanh_16_cast_fp16)[name = tensor<string, []>("input_101_cast_fp16")];
            tensor<string, []> input_103_pad_type_0 = const()[name = tensor<string, []>("input_103_pad_type_0"), val = tensor<string, []>("custom")];
            tensor<int32, [2]> input_103_pad_0 = const()[name = tensor<string, []>("input_103_pad_0"), val = tensor<int32, [2]>([1, 1])];
            tensor<int32, [1]> input_103_strides_0 = const()[name = tensor<string, []>("input_103_strides_0"), val = tensor<int32, [1]>([1])];
            tensor<int32, [1]> input_103_dilations_0 = const()[name = tensor<string, []>("input_103_dilations_0"), val = tensor<int32, [1]>([1])];
            tensor<int32, []> input_103_groups_0 = const()[name = tensor<string, []>("input_103_groups_0"), val = tensor<int32, []>(1)];
            tensor<fp16, [192, 192, 3]> const_8_to_fp16 = const()[name = tensor<string, []>("const_8_to_fp16"), val = tensor<fp16, [192, 192, 3]>(BLOBFILE(path = tensor<string, []>("@model_path/weights/weight.bin"), offset = tensor<uint64, []>(2986368)))];
            tensor<fp16, [192]> const_9_to_fp16 = const()[name = tensor<string, []>("const_9_to_fp16"), val = tensor<fp16, [192]>(BLOBFILE(path = tensor<string, []>("@model_path/weights/weight.bin"), offset = tensor<uint64, []>(3207616)))];
            tensor<fp16, [1, 192, 34]> input_105_cast_fp16 = conv(bias = const_9_to_fp16, dilations = input_103_dilations_0, groups = input_103_groups_0, pad = input_103_pad_0, pad_type = input_103_pad_type_0, strides = input_103_strides_0, weight = const_8_to_fp16, x = input_101_cast_fp16)[name = tensor<string, []>("input_105_cast_fp16")];
            tensor<fp16, [1, 192, 34]> softplus_17_cast_fp16 = softplus(x = input_105_cast_fp16)[name = tensor<string, []>("softplus_17_cast_fp16")];
            tensor<fp16, [1, 192, 34]> tanh_17_cast_fp16 = tanh(x = softplus_17_cast_fp16)[name = tensor<string, []>("tanh_17_cast_fp16")];
            tensor<fp16, [1, 192, 34]> input_107_cast_fp16 = mul(x = input_105_cast_fp16, y = tanh_17_cast_fp16)[name = tensor<string, []>("input_107_cast_fp16")];
            tensor<string, []> x_9_pad_type_0 = const()[name = tensor<string, []>("x_9_pad_type_0"), val = tensor<string, []>("custom")];
            tensor<int32, [2]> x_9_pad_0 = const()[name = tensor<string, []>("x_9_pad_0"), val = tensor<int32, [2]>([1, 1])];
            tensor<int32, [1]> x_9_strides_0 = const()[name = tensor<string, []>("x_9_strides_0"), val = tensor<int32, [1]>([1])];
            tensor<int32, [1]> x_9_dilations_0 = const()[name = tensor<string, []>("x_9_dilations_0"), val = tensor<int32, [1]>([1])];
            tensor<int32, []> x_9_groups_0 = const()[name = tensor<string, []>("x_9_groups_0"), val = tensor<int32, []>(1)];
            tensor<fp16, [192, 192, 3]> brain_encoder_net_5_res_unit_5_weight_to_fp16 = const()[name = tensor<string, []>("brain_encoder_net_5_res_unit_5_weight_to_fp16"), val = tensor<fp16, [192, 192, 3]>(BLOBFILE(path = tensor<string, []>("@model_path/weights/weight.bin"), offset = tensor<uint64, []>(3208064)))];
            tensor<fp16, [1, 192, 34]> x_9_cast_fp16 = conv(dilations = x_9_dilations_0, groups = x_9_groups_0, pad = x_9_pad_0, pad_type = x_9_pad_type_0, strides = x_9_strides_0, weight = brain_encoder_net_5_res_unit_5_weight_to_fp16, x = input_107_cast_fp16)[name = tensor<string, []>("x_9_cast_fp16")];
            tensor<int32, [1]> input_109_axes_0 = const()[name = tensor<string, []>("input_109_axes_0"), val = tensor<int32, [1]>([-1])];
            tensor<bool, []> input_109_keep_dims_0 = const()[name = tensor<string, []>("input_109_keep_dims_0"), val = tensor<bool, []>(false)];
            tensor<fp16, [1, 192]> input_109_cast_fp16 = reduce_mean(axes = input_109_axes_0, keep_dims = input_109_keep_dims_0, x = x_9_cast_fp16)[name = tensor<string, []>("input_109_cast_fp16")];
            tensor<fp16, [12, 192]> brain_encoder_net_5_ca_shared_mlp_0_weight_to_fp16 = const()[name = tensor<string, []>("brain_encoder_net_5_ca_shared_mlp_0_weight_to_fp16"), val = tensor<fp16, [12, 192]>(BLOBFILE(path = tensor<string, []>("@model_path/weights/weight.bin"), offset = tensor<uint64, []>(3429312)))];
            tensor<fp16, [12]> brain_encoder_net_5_ca_shared_mlp_0_bias_to_fp16 = const()[name = tensor<string, []>("brain_encoder_net_5_ca_shared_mlp_0_bias_to_fp16"), val = tensor<fp16, [12]>(BLOBFILE(path = tensor<string, []>("@model_path/weights/weight.bin"), offset = tensor<uint64, []>(3433984)))];
            tensor<fp16, [1, 12]> linear_16_cast_fp16 = linear(bias = brain_encoder_net_5_ca_shared_mlp_0_bias_to_fp16, weight = brain_encoder_net_5_ca_shared_mlp_0_weight_to_fp16, x = input_109_cast_fp16)[name = tensor<string, []>("linear_16_cast_fp16")];
            tensor<fp16, [1, 12]> softplus_18_cast_fp16 = softplus(x = linear_16_cast_fp16)[name = tensor<string, []>("softplus_18_cast_fp16")];
            tensor<fp16, [1, 12]> tanh_18_cast_fp16 = tanh(x = softplus_18_cast_fp16)[name = tensor<string, []>("tanh_18_cast_fp16")];
            tensor<fp16, [1, 12]> input_113_cast_fp16 = mul(x = linear_16_cast_fp16, y = tanh_18_cast_fp16)[name = tensor<string, []>("input_113_cast_fp16")];
            tensor<fp16, [192, 12]> brain_encoder_net_5_ca_shared_mlp_2_weight_to_fp16 = const()[name = tensor<string, []>("brain_encoder_net_5_ca_shared_mlp_2_weight_to_fp16"), val = tensor<fp16, [192, 12]>(BLOBFILE(path = tensor<string, []>("@model_path/weights/weight.bin"), offset = tensor<uint64, []>(3434112)))];
            tensor<fp16, [192]> brain_encoder_net_5_ca_shared_mlp_2_bias_to_fp16 = const()[name = tensor<string, []>("brain_encoder_net_5_ca_shared_mlp_2_bias_to_fp16"), val = tensor<fp16, [192]>(BLOBFILE(path = tensor<string, []>("@model_path/weights/weight.bin"), offset = tensor<uint64, []>(3438784)))];
            tensor<fp16, [1, 192]> linear_17_cast_fp16 = linear(bias = brain_encoder_net_5_ca_shared_mlp_2_bias_to_fp16, weight = brain_encoder_net_5_ca_shared_mlp_2_weight_to_fp16, x = input_113_cast_fp16)[name = tensor<string, []>("linear_17_cast_fp16")];
            tensor<int32, [1]> input_115_axes_0 = const()[name = tensor<string, []>("input_115_axes_0"), val = tensor<int32, [1]>([-1])];
            tensor<fp16, [1, 192]> input_115_cast_fp16 = reduce_max(axes = input_115_axes_0, keep_dims = var_10, x = x_9_cast_fp16)[name = tensor<string, []>("input_115_cast_fp16")];
            tensor<fp16, [1, 12]> linear_18_cast_fp16 = linear(bias = brain_encoder_net_5_ca_shared_mlp_0_bias_to_fp16, weight = brain_encoder_net_5_ca_shared_mlp_0_weight_to_fp16, x = input_115_cast_fp16)[name = tensor<string, []>("linear_18_cast_fp16")];
            tensor<fp16, [1, 12]> softplus_19_cast_fp16 = softplus(x = linear_18_cast_fp16)[name = tensor<string, []>("softplus_19_cast_fp16")];
            tensor<fp16, [1, 12]> tanh_19_cast_fp16 = tanh(x = softplus_19_cast_fp16)[name = tensor<string, []>("tanh_19_cast_fp16")];
            tensor<fp16, [1, 12]> input_119_cast_fp16 = mul(x = linear_18_cast_fp16, y = tanh_19_cast_fp16)[name = tensor<string, []>("input_119_cast_fp16")];
            tensor<fp16, [1, 192]> linear_19_cast_fp16 = linear(bias = brain_encoder_net_5_ca_shared_mlp_2_bias_to_fp16, weight = brain_encoder_net_5_ca_shared_mlp_2_weight_to_fp16, x = input_119_cast_fp16)[name = tensor<string, []>("linear_19_cast_fp16")];
            tensor<fp16, [1, 192]> var_350_cast_fp16 = add(x = linear_17_cast_fp16, y = linear_19_cast_fp16)[name = tensor<string, []>("op_350_cast_fp16")];
            tensor<fp16, [1, 192]> weight_51_cast_fp16 = sigmoid(x = var_350_cast_fp16)[name = tensor<string, []>("weight_51_cast_fp16")];
            tensor<int32, [1]> var_352_axes_0 = const()[name = tensor<string, []>("op_352_axes_0"), val = tensor<int32, [1]>([-1])];
            tensor<fp16, [1, 192, 1]> var_352_cast_fp16 = expand_dims(axes = var_352_axes_0, x = weight_51_cast_fp16)[name = tensor<string, []>("op_352_cast_fp16")];
            tensor<fp16, [1, 192, 34]> out_9_cast_fp16 = mul(x = var_352_cast_fp16, y = x_9_cast_fp16)[name = tensor<string, []>("out_9_cast_fp16")];
            tensor<fp16, [1, 192, 34]> input_121_cast_fp16 = add(x = out_9_cast_fp16, y = input_97_cast_fp16)[name = tensor<string, []>("input_121_cast_fp16")];
            tensor<fp16, [192]> brain_encoder_net_6_res_unit_0_running_mean_to_fp16 = const()[name = tensor<string, []>("brain_encoder_net_6_res_unit_0_running_mean_to_fp16"), val = tensor<fp16, [192]>(BLOBFILE(path = tensor<string, []>("@model_path/weights/weight.bin"), offset = tensor<uint64, []>(3439232)))];
            tensor<fp16, [192]> brain_encoder_net_6_res_unit_0_running_var_to_fp16 = const()[name = tensor<string, []>("brain_encoder_net_6_res_unit_0_running_var_to_fp16"), val = tensor<fp16, [192]>(BLOBFILE(path = tensor<string, []>("@model_path/weights/weight.bin"), offset = tensor<uint64, []>(3439680)))];
            tensor<fp16, [192]> brain_encoder_net_6_res_unit_0_weight_to_fp16 = const()[name = tensor<string, []>("brain_encoder_net_6_res_unit_0_weight_to_fp16"), val = tensor<fp16, [192]>(BLOBFILE(path = tensor<string, []>("@model_path/weights/weight.bin"), offset = tensor<uint64, []>(3440128)))];
            tensor<fp16, [192]> brain_encoder_net_6_res_unit_0_bias_to_fp16 = const()[name = tensor<string, []>("brain_encoder_net_6_res_unit_0_bias_to_fp16"), val = tensor<fp16, [192]>(BLOBFILE(path = tensor<string, []>("@model_path/weights/weight.bin"), offset = tensor<uint64, []>(3440576)))];
            tensor<fp16, [1, 192, 34]> input_123_cast_fp16 = batch_norm(beta = brain_encoder_net_6_res_unit_0_bias_to_fp16, epsilon = var_6_to_fp16, gamma = brain_encoder_net_6_res_unit_0_weight_to_fp16, mean = brain_encoder_net_6_res_unit_0_running_mean_to_fp16, variance = brain_encoder_net_6_res_unit_0_running_var_to_fp16, x = input_121_cast_fp16)[name = tensor<string, []>("input_123_cast_fp16")];
            tensor<fp16, [1, 192, 34]> softplus_20_cast_fp16 = softplus(x = input_123_cast_fp16)[name = tensor<string, []>("softplus_20_cast_fp16")];
            tensor<fp16, [1, 192, 34]> tanh_20_cast_fp16 = tanh(x = softplus_20_cast_fp16)[name = tensor<string, []>("tanh_20_cast_fp16")];
            tensor<fp16, [1, 192, 34]> input_125_cast_fp16 = mul(x = input_123_cast_fp16, y = tanh_20_cast_fp16)[name = tensor<string, []>("input_125_cast_fp16")];
            tensor<string, []> input_127_pad_type_0 = const()[name = tensor<string, []>("input_127_pad_type_0"), val = tensor<string, []>("custom")];
            tensor<int32, [2]> input_127_pad_0 = const()[name = tensor<string, []>("input_127_pad_0"), val = tensor<int32, [2]>([1, 1])];
            tensor<int32, [1]> input_127_strides_0 = const()[name = tensor<string, []>("input_127_strides_0"), val = tensor<int32, [1]>([1])];
            tensor<int32, [1]> input_127_dilations_0 = const()[name = tensor<string, []>("input_127_dilations_0"), val = tensor<int32, [1]>([1])];
            tensor<int32, []> input_127_groups_0 = const()[name = tensor<string, []>("input_127_groups_0"), val = tensor<int32, []>(1)];
            tensor<fp16, [192, 192, 3]> const_10_to_fp16 = const()[name = tensor<string, []>("const_10_to_fp16"), val = tensor<fp16, [192, 192, 3]>(BLOBFILE(path = tensor<string, []>("@model_path/weights/weight.bin"), offset = tensor<uint64, []>(3441024)))];
            tensor<fp16, [192]> const_11_to_fp16 = const()[name = tensor<string, []>("const_11_to_fp16"), val = tensor<fp16, [192]>(BLOBFILE(path = tensor<string, []>("@model_path/weights/weight.bin"), offset = tensor<uint64, []>(3662272)))];
            tensor<fp16, [1, 192, 34]> input_129_cast_fp16 = conv(bias = const_11_to_fp16, dilations = input_127_dilations_0, groups = input_127_groups_0, pad = input_127_pad_0, pad_type = input_127_pad_type_0, strides = input_127_strides_0, weight = const_10_to_fp16, x = input_125_cast_fp16)[name = tensor<string, []>("input_129_cast_fp16")];
            tensor<fp16, [1, 192, 34]> softplus_21_cast_fp16 = softplus(x = input_129_cast_fp16)[name = tensor<string, []>("softplus_21_cast_fp16")];
            tensor<fp16, [1, 192, 34]> tanh_21_cast_fp16 = tanh(x = softplus_21_cast_fp16)[name = tensor<string, []>("tanh_21_cast_fp16")];
            tensor<fp16, [1, 192, 34]> input_131_cast_fp16 = mul(x = input_129_cast_fp16, y = tanh_21_cast_fp16)[name = tensor<string, []>("input_131_cast_fp16")];
            tensor<string, []> x_11_pad_type_0 = const()[name = tensor<string, []>("x_11_pad_type_0"), val = tensor<string, []>("custom")];
            tensor<int32, [2]> x_11_pad_0 = const()[name = tensor<string, []>("x_11_pad_0"), val = tensor<int32, [2]>([1, 1])];
            tensor<int32, [1]> x_11_strides_0 = const()[name = tensor<string, []>("x_11_strides_0"), val = tensor<int32, [1]>([1])];
            tensor<int32, [1]> x_11_dilations_0 = const()[name = tensor<string, []>("x_11_dilations_0"), val = tensor<int32, [1]>([1])];
            tensor<int32, []> x_11_groups_0 = const()[name = tensor<string, []>("x_11_groups_0"), val = tensor<int32, []>(1)];
            tensor<fp16, [192, 192, 3]> brain_encoder_net_6_res_unit_5_weight_to_fp16 = const()[name = tensor<string, []>("brain_encoder_net_6_res_unit_5_weight_to_fp16"), val = tensor<fp16, [192, 192, 3]>(BLOBFILE(path = tensor<string, []>("@model_path/weights/weight.bin"), offset = tensor<uint64, []>(3662720)))];
            tensor<fp16, [1, 192, 34]> x_11_cast_fp16 = conv(dilations = x_11_dilations_0, groups = x_11_groups_0, pad = x_11_pad_0, pad_type = x_11_pad_type_0, strides = x_11_strides_0, weight = brain_encoder_net_6_res_unit_5_weight_to_fp16, x = input_131_cast_fp16)[name = tensor<string, []>("x_11_cast_fp16")];
            tensor<int32, [1]> input_133_axes_0 = const()[name = tensor<string, []>("input_133_axes_0"), val = tensor<int32, [1]>([-1])];
            tensor<bool, []> input_133_keep_dims_0 = const()[name = tensor<string, []>("input_133_keep_dims_0"), val = tensor<bool, []>(false)];
            tensor<fp16, [1, 192]> input_133_cast_fp16 = reduce_mean(axes = input_133_axes_0, keep_dims = input_133_keep_dims_0, x = x_11_cast_fp16)[name = tensor<string, []>("input_133_cast_fp16")];
            tensor<fp16, [12, 192]> brain_encoder_net_6_ca_shared_mlp_0_weight_to_fp16 = const()[name = tensor<string, []>("brain_encoder_net_6_ca_shared_mlp_0_weight_to_fp16"), val = tensor<fp16, [12, 192]>(BLOBFILE(path = tensor<string, []>("@model_path/weights/weight.bin"), offset = tensor<uint64, []>(3883968)))];
            tensor<fp16, [12]> brain_encoder_net_6_ca_shared_mlp_0_bias_to_fp16 = const()[name = tensor<string, []>("brain_encoder_net_6_ca_shared_mlp_0_bias_to_fp16"), val = tensor<fp16, [12]>(BLOBFILE(path = tensor<string, []>("@model_path/weights/weight.bin"), offset = tensor<uint64, []>(3888640)))];
            tensor<fp16, [1, 12]> linear_20_cast_fp16 = linear(bias = brain_encoder_net_6_ca_shared_mlp_0_bias_to_fp16, weight = brain_encoder_net_6_ca_shared_mlp_0_weight_to_fp16, x = input_133_cast_fp16)[name = tensor<string, []>("linear_20_cast_fp16")];
            tensor<fp16, [1, 12]> softplus_22_cast_fp16 = softplus(x = linear_20_cast_fp16)[name = tensor<string, []>("softplus_22_cast_fp16")];
            tensor<fp16, [1, 12]> tanh_22_cast_fp16 = tanh(x = softplus_22_cast_fp16)[name = tensor<string, []>("tanh_22_cast_fp16")];
            tensor<fp16, [1, 12]> input_137_cast_fp16 = mul(x = linear_20_cast_fp16, y = tanh_22_cast_fp16)[name = tensor<string, []>("input_137_cast_fp16")];
            tensor<fp16, [192, 12]> brain_encoder_net_6_ca_shared_mlp_2_weight_to_fp16 = const()[name = tensor<string, []>("brain_encoder_net_6_ca_shared_mlp_2_weight_to_fp16"), val = tensor<fp16, [192, 12]>(BLOBFILE(path = tensor<string, []>("@model_path/weights/weight.bin"), offset = tensor<uint64, []>(3888768)))];
            tensor<fp16, [192]> brain_encoder_net_6_ca_shared_mlp_2_bias_to_fp16 = const()[name = tensor<string, []>("brain_encoder_net_6_ca_shared_mlp_2_bias_to_fp16"), val = tensor<fp16, [192]>(BLOBFILE(path = tensor<string, []>("@model_path/weights/weight.bin"), offset = tensor<uint64, []>(3893440)))];
            tensor<fp16, [1, 192]> linear_21_cast_fp16 = linear(bias = brain_encoder_net_6_ca_shared_mlp_2_bias_to_fp16, weight = brain_encoder_net_6_ca_shared_mlp_2_weight_to_fp16, x = input_137_cast_fp16)[name = tensor<string, []>("linear_21_cast_fp16")];
            tensor<int32, [1]> input_139_axes_0 = const()[name = tensor<string, []>("input_139_axes_0"), val = tensor<int32, [1]>([-1])];
            tensor<fp16, [1, 192]> input_139_cast_fp16 = reduce_max(axes = input_139_axes_0, keep_dims = var_10, x = x_11_cast_fp16)[name = tensor<string, []>("input_139_cast_fp16")];
            tensor<fp16, [1, 12]> linear_22_cast_fp16 = linear(bias = brain_encoder_net_6_ca_shared_mlp_0_bias_to_fp16, weight = brain_encoder_net_6_ca_shared_mlp_0_weight_to_fp16, x = input_139_cast_fp16)[name = tensor<string, []>("linear_22_cast_fp16")];
            tensor<fp16, [1, 12]> softplus_23_cast_fp16 = softplus(x = linear_22_cast_fp16)[name = tensor<string, []>("softplus_23_cast_fp16")];
            tensor<fp16, [1, 12]> tanh_23_cast_fp16 = tanh(x = softplus_23_cast_fp16)[name = tensor<string, []>("tanh_23_cast_fp16")];
            tensor<fp16, [1, 12]> input_143_cast_fp16 = mul(x = linear_22_cast_fp16, y = tanh_23_cast_fp16)[name = tensor<string, []>("input_143_cast_fp16")];
            tensor<fp16, [1, 192]> linear_23_cast_fp16 = linear(bias = brain_encoder_net_6_ca_shared_mlp_2_bias_to_fp16, weight = brain_encoder_net_6_ca_shared_mlp_2_weight_to_fp16, x = input_143_cast_fp16)[name = tensor<string, []>("linear_23_cast_fp16")];
            tensor<fp16, [1, 192]> var_408_cast_fp16 = add(x = linear_21_cast_fp16, y = linear_23_cast_fp16)[name = tensor<string, []>("op_408_cast_fp16")];
            tensor<fp16, [1, 192]> weight_61_cast_fp16 = sigmoid(x = var_408_cast_fp16)[name = tensor<string, []>("weight_61_cast_fp16")];
            tensor<int32, [1]> var_410_axes_0 = const()[name = tensor<string, []>("op_410_axes_0"), val = tensor<int32, [1]>([-1])];
            tensor<fp16, [1, 192, 1]> var_410_cast_fp16 = expand_dims(axes = var_410_axes_0, x = weight_61_cast_fp16)[name = tensor<string, []>("op_410_cast_fp16")];
            tensor<fp16, [1, 192, 34]> out_11_cast_fp16 = mul(x = var_410_cast_fp16, y = x_11_cast_fp16)[name = tensor<string, []>("out_11_cast_fp16")];
            tensor<fp16, [1, 192, 34]> input_145_cast_fp16 = add(x = out_11_cast_fp16, y = input_121_cast_fp16)[name = tensor<string, []>("input_145_cast_fp16")];
            tensor<fp16, [192]> brain_encoder_net_7_res_unit_0_running_mean_to_fp16 = const()[name = tensor<string, []>("brain_encoder_net_7_res_unit_0_running_mean_to_fp16"), val = tensor<fp16, [192]>(BLOBFILE(path = tensor<string, []>("@model_path/weights/weight.bin"), offset = tensor<uint64, []>(3893888)))];
            tensor<fp16, [192]> brain_encoder_net_7_res_unit_0_running_var_to_fp16 = const()[name = tensor<string, []>("brain_encoder_net_7_res_unit_0_running_var_to_fp16"), val = tensor<fp16, [192]>(BLOBFILE(path = tensor<string, []>("@model_path/weights/weight.bin"), offset = tensor<uint64, []>(3894336)))];
            tensor<fp16, [192]> brain_encoder_net_7_res_unit_0_weight_to_fp16 = const()[name = tensor<string, []>("brain_encoder_net_7_res_unit_0_weight_to_fp16"), val = tensor<fp16, [192]>(BLOBFILE(path = tensor<string, []>("@model_path/weights/weight.bin"), offset = tensor<uint64, []>(3894784)))];
            tensor<fp16, [192]> brain_encoder_net_7_res_unit_0_bias_to_fp16 = const()[name = tensor<string, []>("brain_encoder_net_7_res_unit_0_bias_to_fp16"), val = tensor<fp16, [192]>(BLOBFILE(path = tensor<string, []>("@model_path/weights/weight.bin"), offset = tensor<uint64, []>(3895232)))];
            tensor<fp16, [1, 192, 34]> input_147_cast_fp16 = batch_norm(beta = brain_encoder_net_7_res_unit_0_bias_to_fp16, epsilon = var_6_to_fp16, gamma = brain_encoder_net_7_res_unit_0_weight_to_fp16, mean = brain_encoder_net_7_res_unit_0_running_mean_to_fp16, variance = brain_encoder_net_7_res_unit_0_running_var_to_fp16, x = input_145_cast_fp16)[name = tensor<string, []>("input_147_cast_fp16")];
            tensor<fp16, [1, 192, 34]> softplus_24_cast_fp16 = softplus(x = input_147_cast_fp16)[name = tensor<string, []>("softplus_24_cast_fp16")];
            tensor<fp16, [1, 192, 34]> tanh_24_cast_fp16 = tanh(x = softplus_24_cast_fp16)[name = tensor<string, []>("tanh_24_cast_fp16")];
            tensor<fp16, [1, 192, 34]> input_149_cast_fp16 = mul(x = input_147_cast_fp16, y = tanh_24_cast_fp16)[name = tensor<string, []>("input_149_cast_fp16")];
            tensor<string, []> input_151_pad_type_0 = const()[name = tensor<string, []>("input_151_pad_type_0"), val = tensor<string, []>("custom")];
            tensor<int32, [2]> input_151_pad_0 = const()[name = tensor<string, []>("input_151_pad_0"), val = tensor<int32, [2]>([1, 1])];
            tensor<int32, [1]> input_151_strides_0 = const()[name = tensor<string, []>("input_151_strides_0"), val = tensor<int32, [1]>([1])];
            tensor<int32, [1]> input_151_dilations_0 = const()[name = tensor<string, []>("input_151_dilations_0"), val = tensor<int32, [1]>([1])];
            tensor<int32, []> input_151_groups_0 = const()[name = tensor<string, []>("input_151_groups_0"), val = tensor<int32, []>(1)];
            tensor<fp16, [192, 192, 3]> const_12_to_fp16 = const()[name = tensor<string, []>("const_12_to_fp16"), val = tensor<fp16, [192, 192, 3]>(BLOBFILE(path = tensor<string, []>("@model_path/weights/weight.bin"), offset = tensor<uint64, []>(3895680)))];
            tensor<fp16, [192]> const_13_to_fp16 = const()[name = tensor<string, []>("const_13_to_fp16"), val = tensor<fp16, [192]>(BLOBFILE(path = tensor<string, []>("@model_path/weights/weight.bin"), offset = tensor<uint64, []>(4116928)))];
            tensor<fp16, [1, 192, 34]> input_153_cast_fp16 = conv(bias = const_13_to_fp16, dilations = input_151_dilations_0, groups = input_151_groups_0, pad = input_151_pad_0, pad_type = input_151_pad_type_0, strides = input_151_strides_0, weight = const_12_to_fp16, x = input_149_cast_fp16)[name = tensor<string, []>("input_153_cast_fp16")];
            tensor<fp16, [1, 192, 34]> softplus_25_cast_fp16 = softplus(x = input_153_cast_fp16)[name = tensor<string, []>("softplus_25_cast_fp16")];
            tensor<fp16, [1, 192, 34]> tanh_25_cast_fp16 = tanh(x = softplus_25_cast_fp16)[name = tensor<string, []>("tanh_25_cast_fp16")];
            tensor<fp16, [1, 192, 34]> input_155_cast_fp16 = mul(x = input_153_cast_fp16, y = tanh_25_cast_fp16)[name = tensor<string, []>("input_155_cast_fp16")];
            tensor<string, []> x_13_pad_type_0 = const()[name = tensor<string, []>("x_13_pad_type_0"), val = tensor<string, []>("custom")];
            tensor<int32, [2]> x_13_pad_0 = const()[name = tensor<string, []>("x_13_pad_0"), val = tensor<int32, [2]>([1, 1])];
            tensor<int32, [1]> x_13_strides_0 = const()[name = tensor<string, []>("x_13_strides_0"), val = tensor<int32, [1]>([1])];
            tensor<int32, [1]> x_13_dilations_0 = const()[name = tensor<string, []>("x_13_dilations_0"), val = tensor<int32, [1]>([1])];
            tensor<int32, []> x_13_groups_0 = const()[name = tensor<string, []>("x_13_groups_0"), val = tensor<int32, []>(1)];
            tensor<fp16, [192, 192, 3]> brain_encoder_net_7_res_unit_5_weight_to_fp16 = const()[name = tensor<string, []>("brain_encoder_net_7_res_unit_5_weight_to_fp16"), val = tensor<fp16, [192, 192, 3]>(BLOBFILE(path = tensor<string, []>("@model_path/weights/weight.bin"), offset = tensor<uint64, []>(4117376)))];
            tensor<fp16, [1, 192, 34]> x_13_cast_fp16 = conv(dilations = x_13_dilations_0, groups = x_13_groups_0, pad = x_13_pad_0, pad_type = x_13_pad_type_0, strides = x_13_strides_0, weight = brain_encoder_net_7_res_unit_5_weight_to_fp16, x = input_155_cast_fp16)[name = tensor<string, []>("x_13_cast_fp16")];
            tensor<int32, [1]> input_157_axes_0 = const()[name = tensor<string, []>("input_157_axes_0"), val = tensor<int32, [1]>([-1])];
            tensor<bool, []> input_157_keep_dims_0 = const()[name = tensor<string, []>("input_157_keep_dims_0"), val = tensor<bool, []>(false)];
            tensor<fp16, [1, 192]> input_157_cast_fp16 = reduce_mean(axes = input_157_axes_0, keep_dims = input_157_keep_dims_0, x = x_13_cast_fp16)[name = tensor<string, []>("input_157_cast_fp16")];
            tensor<fp16, [12, 192]> brain_encoder_net_7_ca_shared_mlp_0_weight_to_fp16 = const()[name = tensor<string, []>("brain_encoder_net_7_ca_shared_mlp_0_weight_to_fp16"), val = tensor<fp16, [12, 192]>(BLOBFILE(path = tensor<string, []>("@model_path/weights/weight.bin"), offset = tensor<uint64, []>(4338624)))];
            tensor<fp16, [12]> brain_encoder_net_7_ca_shared_mlp_0_bias_to_fp16 = const()[name = tensor<string, []>("brain_encoder_net_7_ca_shared_mlp_0_bias_to_fp16"), val = tensor<fp16, [12]>(BLOBFILE(path = tensor<string, []>("@model_path/weights/weight.bin"), offset = tensor<uint64, []>(4343296)))];
            tensor<fp16, [1, 12]> linear_24_cast_fp16 = linear(bias = brain_encoder_net_7_ca_shared_mlp_0_bias_to_fp16, weight = brain_encoder_net_7_ca_shared_mlp_0_weight_to_fp16, x = input_157_cast_fp16)[name = tensor<string, []>("linear_24_cast_fp16")];
            tensor<fp16, [1, 12]> softplus_26_cast_fp16 = softplus(x = linear_24_cast_fp16)[name = tensor<string, []>("softplus_26_cast_fp16")];
            tensor<fp16, [1, 12]> tanh_26_cast_fp16 = tanh(x = softplus_26_cast_fp16)[name = tensor<string, []>("tanh_26_cast_fp16")];
            tensor<fp16, [1, 12]> input_161_cast_fp16 = mul(x = linear_24_cast_fp16, y = tanh_26_cast_fp16)[name = tensor<string, []>("input_161_cast_fp16")];
            tensor<fp16, [192, 12]> brain_encoder_net_7_ca_shared_mlp_2_weight_to_fp16 = const()[name = tensor<string, []>("brain_encoder_net_7_ca_shared_mlp_2_weight_to_fp16"), val = tensor<fp16, [192, 12]>(BLOBFILE(path = tensor<string, []>("@model_path/weights/weight.bin"), offset = tensor<uint64, []>(4343424)))];
            tensor<fp16, [192]> brain_encoder_net_7_ca_shared_mlp_2_bias_to_fp16 = const()[name = tensor<string, []>("brain_encoder_net_7_ca_shared_mlp_2_bias_to_fp16"), val = tensor<fp16, [192]>(BLOBFILE(path = tensor<string, []>("@model_path/weights/weight.bin"), offset = tensor<uint64, []>(4348096)))];
            tensor<fp16, [1, 192]> linear_25_cast_fp16 = linear(bias = brain_encoder_net_7_ca_shared_mlp_2_bias_to_fp16, weight = brain_encoder_net_7_ca_shared_mlp_2_weight_to_fp16, x = input_161_cast_fp16)[name = tensor<string, []>("linear_25_cast_fp16")];
            tensor<int32, [1]> input_163_axes_0 = const()[name = tensor<string, []>("input_163_axes_0"), val = tensor<int32, [1]>([-1])];
            tensor<fp16, [1, 192]> input_163_cast_fp16 = reduce_max(axes = input_163_axes_0, keep_dims = var_10, x = x_13_cast_fp16)[name = tensor<string, []>("input_163_cast_fp16")];
            tensor<fp16, [1, 12]> linear_26_cast_fp16 = linear(bias = brain_encoder_net_7_ca_shared_mlp_0_bias_to_fp16, weight = brain_encoder_net_7_ca_shared_mlp_0_weight_to_fp16, x = input_163_cast_fp16)[name = tensor<string, []>("linear_26_cast_fp16")];
            tensor<fp16, [1, 12]> softplus_27_cast_fp16 = softplus(x = linear_26_cast_fp16)[name = tensor<string, []>("softplus_27_cast_fp16")];
            tensor<fp16, [1, 12]> tanh_27_cast_fp16 = tanh(x = softplus_27_cast_fp16)[name = tensor<string, []>("tanh_27_cast_fp16")];
            tensor<fp16, [1, 12]> input_167_cast_fp16 = mul(x = linear_26_cast_fp16, y = tanh_27_cast_fp16)[name = tensor<string, []>("input_167_cast_fp16")];
            tensor<fp16, [1, 192]> linear_27_cast_fp16 = linear(bias = brain_encoder_net_7_ca_shared_mlp_2_bias_to_fp16, weight = brain_encoder_net_7_ca_shared_mlp_2_weight_to_fp16, x = input_167_cast_fp16)[name = tensor<string, []>("linear_27_cast_fp16")];
            tensor<fp16, [1, 192]> var_466_cast_fp16 = add(x = linear_25_cast_fp16, y = linear_27_cast_fp16)[name = tensor<string, []>("op_466_cast_fp16")];
            tensor<fp16, [1, 192]> weight_71_cast_fp16 = sigmoid(x = var_466_cast_fp16)[name = tensor<string, []>("weight_71_cast_fp16")];
            tensor<int32, [1]> var_468_axes_0 = const()[name = tensor<string, []>("op_468_axes_0"), val = tensor<int32, [1]>([-1])];
            tensor<fp16, [1, 192, 1]> var_468_cast_fp16 = expand_dims(axes = var_468_axes_0, x = weight_71_cast_fp16)[name = tensor<string, []>("op_468_cast_fp16")];
            tensor<fp16, [1, 192, 34]> out_13_cast_fp16 = mul(x = var_468_cast_fp16, y = x_13_cast_fp16)[name = tensor<string, []>("out_13_cast_fp16")];
            tensor<fp16, [1, 192, 34]> input_169_cast_fp16 = add(x = out_13_cast_fp16, y = input_145_cast_fp16)[name = tensor<string, []>("input_169_cast_fp16")];
            tensor<fp16, [192]> brain_encoder_net_8_res_unit_0_running_mean_to_fp16 = const()[name = tensor<string, []>("brain_encoder_net_8_res_unit_0_running_mean_to_fp16"), val = tensor<fp16, [192]>(BLOBFILE(path = tensor<string, []>("@model_path/weights/weight.bin"), offset = tensor<uint64, []>(4348544)))];
            tensor<fp16, [192]> brain_encoder_net_8_res_unit_0_running_var_to_fp16 = const()[name = tensor<string, []>("brain_encoder_net_8_res_unit_0_running_var_to_fp16"), val = tensor<fp16, [192]>(BLOBFILE(path = tensor<string, []>("@model_path/weights/weight.bin"), offset = tensor<uint64, []>(4348992)))];
            tensor<fp16, [192]> brain_encoder_net_8_res_unit_0_weight_to_fp16 = const()[name = tensor<string, []>("brain_encoder_net_8_res_unit_0_weight_to_fp16"), val = tensor<fp16, [192]>(BLOBFILE(path = tensor<string, []>("@model_path/weights/weight.bin"), offset = tensor<uint64, []>(4349440)))];
            tensor<fp16, [192]> brain_encoder_net_8_res_unit_0_bias_to_fp16 = const()[name = tensor<string, []>("brain_encoder_net_8_res_unit_0_bias_to_fp16"), val = tensor<fp16, [192]>(BLOBFILE(path = tensor<string, []>("@model_path/weights/weight.bin"), offset = tensor<uint64, []>(4349888)))];
            tensor<fp16, [1, 192, 34]> input_171_cast_fp16 = batch_norm(beta = brain_encoder_net_8_res_unit_0_bias_to_fp16, epsilon = var_6_to_fp16, gamma = brain_encoder_net_8_res_unit_0_weight_to_fp16, mean = brain_encoder_net_8_res_unit_0_running_mean_to_fp16, variance = brain_encoder_net_8_res_unit_0_running_var_to_fp16, x = input_169_cast_fp16)[name = tensor<string, []>("input_171_cast_fp16")];
            tensor<fp16, [1, 192, 34]> softplus_28_cast_fp16 = softplus(x = input_171_cast_fp16)[name = tensor<string, []>("softplus_28_cast_fp16")];
            tensor<fp16, [1, 192, 34]> tanh_28_cast_fp16 = tanh(x = softplus_28_cast_fp16)[name = tensor<string, []>("tanh_28_cast_fp16")];
            tensor<fp16, [1, 192, 34]> input_173_cast_fp16 = mul(x = input_171_cast_fp16, y = tanh_28_cast_fp16)[name = tensor<string, []>("input_173_cast_fp16")];
            tensor<string, []> input_175_pad_type_0 = const()[name = tensor<string, []>("input_175_pad_type_0"), val = tensor<string, []>("custom")];
            tensor<int32, [2]> input_175_pad_0 = const()[name = tensor<string, []>("input_175_pad_0"), val = tensor<int32, [2]>([1, 1])];
            tensor<int32, [1]> input_175_strides_0 = const()[name = tensor<string, []>("input_175_strides_0"), val = tensor<int32, [1]>([1])];
            tensor<int32, [1]> input_175_dilations_0 = const()[name = tensor<string, []>("input_175_dilations_0"), val = tensor<int32, [1]>([1])];
            tensor<int32, []> input_175_groups_0 = const()[name = tensor<string, []>("input_175_groups_0"), val = tensor<int32, []>(1)];
            tensor<fp16, [192, 192, 3]> const_14_to_fp16 = const()[name = tensor<string, []>("const_14_to_fp16"), val = tensor<fp16, [192, 192, 3]>(BLOBFILE(path = tensor<string, []>("@model_path/weights/weight.bin"), offset = tensor<uint64, []>(4350336)))];
            tensor<fp16, [192]> const_15_to_fp16 = const()[name = tensor<string, []>("const_15_to_fp16"), val = tensor<fp16, [192]>(BLOBFILE(path = tensor<string, []>("@model_path/weights/weight.bin"), offset = tensor<uint64, []>(4571584)))];
            tensor<fp16, [1, 192, 34]> input_177_cast_fp16 = conv(bias = const_15_to_fp16, dilations = input_175_dilations_0, groups = input_175_groups_0, pad = input_175_pad_0, pad_type = input_175_pad_type_0, strides = input_175_strides_0, weight = const_14_to_fp16, x = input_173_cast_fp16)[name = tensor<string, []>("input_177_cast_fp16")];
            tensor<fp16, [1, 192, 34]> softplus_29_cast_fp16 = softplus(x = input_177_cast_fp16)[name = tensor<string, []>("softplus_29_cast_fp16")];
            tensor<fp16, [1, 192, 34]> tanh_29_cast_fp16 = tanh(x = softplus_29_cast_fp16)[name = tensor<string, []>("tanh_29_cast_fp16")];
            tensor<fp16, [1, 192, 34]> input_179_cast_fp16 = mul(x = input_177_cast_fp16, y = tanh_29_cast_fp16)[name = tensor<string, []>("input_179_cast_fp16")];
            tensor<string, []> x_15_pad_type_0 = const()[name = tensor<string, []>("x_15_pad_type_0"), val = tensor<string, []>("custom")];
            tensor<int32, [2]> x_15_pad_0 = const()[name = tensor<string, []>("x_15_pad_0"), val = tensor<int32, [2]>([1, 1])];
            tensor<int32, [1]> x_15_strides_0 = const()[name = tensor<string, []>("x_15_strides_0"), val = tensor<int32, [1]>([1])];
            tensor<int32, [1]> x_15_dilations_0 = const()[name = tensor<string, []>("x_15_dilations_0"), val = tensor<int32, [1]>([1])];
            tensor<int32, []> x_15_groups_0 = const()[name = tensor<string, []>("x_15_groups_0"), val = tensor<int32, []>(1)];
            tensor<fp16, [192, 192, 3]> brain_encoder_net_8_res_unit_5_weight_to_fp16 = const()[name = tensor<string, []>("brain_encoder_net_8_res_unit_5_weight_to_fp16"), val = tensor<fp16, [192, 192, 3]>(BLOBFILE(path = tensor<string, []>("@model_path/weights/weight.bin"), offset = tensor<uint64, []>(4572032)))];
            tensor<fp16, [1, 192, 34]> x_15_cast_fp16 = conv(dilations = x_15_dilations_0, groups = x_15_groups_0, pad = x_15_pad_0, pad_type = x_15_pad_type_0, strides = x_15_strides_0, weight = brain_encoder_net_8_res_unit_5_weight_to_fp16, x = input_179_cast_fp16)[name = tensor<string, []>("x_15_cast_fp16")];
            tensor<int32, [1]> input_181_axes_0 = const()[name = tensor<string, []>("input_181_axes_0"), val = tensor<int32, [1]>([-1])];
            tensor<bool, []> input_181_keep_dims_0 = const()[name = tensor<string, []>("input_181_keep_dims_0"), val = tensor<bool, []>(false)];
            tensor<fp16, [1, 192]> input_181_cast_fp16 = reduce_mean(axes = input_181_axes_0, keep_dims = input_181_keep_dims_0, x = x_15_cast_fp16)[name = tensor<string, []>("input_181_cast_fp16")];
            tensor<fp16, [12, 192]> brain_encoder_net_8_ca_shared_mlp_0_weight_to_fp16 = const()[name = tensor<string, []>("brain_encoder_net_8_ca_shared_mlp_0_weight_to_fp16"), val = tensor<fp16, [12, 192]>(BLOBFILE(path = tensor<string, []>("@model_path/weights/weight.bin"), offset = tensor<uint64, []>(4793280)))];
            tensor<fp16, [12]> brain_encoder_net_8_ca_shared_mlp_0_bias_to_fp16 = const()[name = tensor<string, []>("brain_encoder_net_8_ca_shared_mlp_0_bias_to_fp16"), val = tensor<fp16, [12]>(BLOBFILE(path = tensor<string, []>("@model_path/weights/weight.bin"), offset = tensor<uint64, []>(4797952)))];
            tensor<fp16, [1, 12]> linear_28_cast_fp16 = linear(bias = brain_encoder_net_8_ca_shared_mlp_0_bias_to_fp16, weight = brain_encoder_net_8_ca_shared_mlp_0_weight_to_fp16, x = input_181_cast_fp16)[name = tensor<string, []>("linear_28_cast_fp16")];
            tensor<fp16, [1, 12]> softplus_30_cast_fp16 = softplus(x = linear_28_cast_fp16)[name = tensor<string, []>("softplus_30_cast_fp16")];
            tensor<fp16, [1, 12]> tanh_30_cast_fp16 = tanh(x = softplus_30_cast_fp16)[name = tensor<string, []>("tanh_30_cast_fp16")];
            tensor<fp16, [1, 12]> input_185_cast_fp16 = mul(x = linear_28_cast_fp16, y = tanh_30_cast_fp16)[name = tensor<string, []>("input_185_cast_fp16")];
            tensor<fp16, [192, 12]> brain_encoder_net_8_ca_shared_mlp_2_weight_to_fp16 = const()[name = tensor<string, []>("brain_encoder_net_8_ca_shared_mlp_2_weight_to_fp16"), val = tensor<fp16, [192, 12]>(BLOBFILE(path = tensor<string, []>("@model_path/weights/weight.bin"), offset = tensor<uint64, []>(4798080)))];
            tensor<fp16, [192]> brain_encoder_net_8_ca_shared_mlp_2_bias_to_fp16 = const()[name = tensor<string, []>("brain_encoder_net_8_ca_shared_mlp_2_bias_to_fp16"), val = tensor<fp16, [192]>(BLOBFILE(path = tensor<string, []>("@model_path/weights/weight.bin"), offset = tensor<uint64, []>(4802752)))];
            tensor<fp16, [1, 192]> linear_29_cast_fp16 = linear(bias = brain_encoder_net_8_ca_shared_mlp_2_bias_to_fp16, weight = brain_encoder_net_8_ca_shared_mlp_2_weight_to_fp16, x = input_185_cast_fp16)[name = tensor<string, []>("linear_29_cast_fp16")];
            tensor<int32, [1]> input_187_axes_0 = const()[name = tensor<string, []>("input_187_axes_0"), val = tensor<int32, [1]>([-1])];
            tensor<fp16, [1, 192]> input_187_cast_fp16 = reduce_max(axes = input_187_axes_0, keep_dims = var_10, x = x_15_cast_fp16)[name = tensor<string, []>("input_187_cast_fp16")];
            tensor<fp16, [1, 12]> linear_30_cast_fp16 = linear(bias = brain_encoder_net_8_ca_shared_mlp_0_bias_to_fp16, weight = brain_encoder_net_8_ca_shared_mlp_0_weight_to_fp16, x = input_187_cast_fp16)[name = tensor<string, []>("linear_30_cast_fp16")];
            tensor<fp16, [1, 12]> softplus_31_cast_fp16 = softplus(x = linear_30_cast_fp16)[name = tensor<string, []>("softplus_31_cast_fp16")];
            tensor<fp16, [1, 12]> tanh_31_cast_fp16 = tanh(x = softplus_31_cast_fp16)[name = tensor<string, []>("tanh_31_cast_fp16")];
            tensor<fp16, [1, 12]> input_191_cast_fp16 = mul(x = linear_30_cast_fp16, y = tanh_31_cast_fp16)[name = tensor<string, []>("input_191_cast_fp16")];
            tensor<fp16, [1, 192]> linear_31_cast_fp16 = linear(bias = brain_encoder_net_8_ca_shared_mlp_2_bias_to_fp16, weight = brain_encoder_net_8_ca_shared_mlp_2_weight_to_fp16, x = input_191_cast_fp16)[name = tensor<string, []>("linear_31_cast_fp16")];
            tensor<fp16, [1, 192]> var_524_cast_fp16 = add(x = linear_29_cast_fp16, y = linear_31_cast_fp16)[name = tensor<string, []>("op_524_cast_fp16")];
            tensor<fp16, [1, 192]> weight_81_cast_fp16 = sigmoid(x = var_524_cast_fp16)[name = tensor<string, []>("weight_81_cast_fp16")];
            tensor<int32, [1]> var_526_axes_0 = const()[name = tensor<string, []>("op_526_axes_0"), val = tensor<int32, [1]>([-1])];
            tensor<fp16, [1, 192, 1]> var_526_cast_fp16 = expand_dims(axes = var_526_axes_0, x = weight_81_cast_fp16)[name = tensor<string, []>("op_526_cast_fp16")];
            tensor<fp16, [1, 192, 34]> out_15_cast_fp16 = mul(x = var_526_cast_fp16, y = x_15_cast_fp16)[name = tensor<string, []>("out_15_cast_fp16")];
            tensor<fp16, [1, 192, 34]> input_193_cast_fp16 = add(x = out_15_cast_fp16, y = input_169_cast_fp16)[name = tensor<string, []>("input_193_cast_fp16")];
            tensor<fp16, [192]> brain_encoder_net_9_res_unit_0_running_mean_to_fp16 = const()[name = tensor<string, []>("brain_encoder_net_9_res_unit_0_running_mean_to_fp16"), val = tensor<fp16, [192]>(BLOBFILE(path = tensor<string, []>("@model_path/weights/weight.bin"), offset = tensor<uint64, []>(4803200)))];
            tensor<fp16, [192]> brain_encoder_net_9_res_unit_0_running_var_to_fp16 = const()[name = tensor<string, []>("brain_encoder_net_9_res_unit_0_running_var_to_fp16"), val = tensor<fp16, [192]>(BLOBFILE(path = tensor<string, []>("@model_path/weights/weight.bin"), offset = tensor<uint64, []>(4803648)))];
            tensor<fp16, [192]> brain_encoder_net_9_res_unit_0_weight_to_fp16 = const()[name = tensor<string, []>("brain_encoder_net_9_res_unit_0_weight_to_fp16"), val = tensor<fp16, [192]>(BLOBFILE(path = tensor<string, []>("@model_path/weights/weight.bin"), offset = tensor<uint64, []>(4804096)))];
            tensor<fp16, [192]> brain_encoder_net_9_res_unit_0_bias_to_fp16 = const()[name = tensor<string, []>("brain_encoder_net_9_res_unit_0_bias_to_fp16"), val = tensor<fp16, [192]>(BLOBFILE(path = tensor<string, []>("@model_path/weights/weight.bin"), offset = tensor<uint64, []>(4804544)))];
            tensor<fp16, [1, 192, 34]> input_195_cast_fp16 = batch_norm(beta = brain_encoder_net_9_res_unit_0_bias_to_fp16, epsilon = var_6_to_fp16, gamma = brain_encoder_net_9_res_unit_0_weight_to_fp16, mean = brain_encoder_net_9_res_unit_0_running_mean_to_fp16, variance = brain_encoder_net_9_res_unit_0_running_var_to_fp16, x = input_193_cast_fp16)[name = tensor<string, []>("input_195_cast_fp16")];
            tensor<fp16, [1, 192, 34]> softplus_32_cast_fp16 = softplus(x = input_195_cast_fp16)[name = tensor<string, []>("softplus_32_cast_fp16")];
            tensor<fp16, [1, 192, 34]> tanh_32_cast_fp16 = tanh(x = softplus_32_cast_fp16)[name = tensor<string, []>("tanh_32_cast_fp16")];
            tensor<fp16, [1, 192, 34]> input_197_cast_fp16 = mul(x = input_195_cast_fp16, y = tanh_32_cast_fp16)[name = tensor<string, []>("input_197_cast_fp16")];
            tensor<string, []> input_199_pad_type_0 = const()[name = tensor<string, []>("input_199_pad_type_0"), val = tensor<string, []>("custom")];
            tensor<int32, [2]> input_199_pad_0 = const()[name = tensor<string, []>("input_199_pad_0"), val = tensor<int32, [2]>([1, 1])];
            tensor<int32, [1]> input_199_strides_0 = const()[name = tensor<string, []>("input_199_strides_0"), val = tensor<int32, [1]>([1])];
            tensor<int32, [1]> input_199_dilations_0 = const()[name = tensor<string, []>("input_199_dilations_0"), val = tensor<int32, [1]>([1])];
            tensor<int32, []> input_199_groups_0 = const()[name = tensor<string, []>("input_199_groups_0"), val = tensor<int32, []>(1)];
            tensor<fp16, [192, 192, 3]> const_16_to_fp16 = const()[name = tensor<string, []>("const_16_to_fp16"), val = tensor<fp16, [192, 192, 3]>(BLOBFILE(path = tensor<string, []>("@model_path/weights/weight.bin"), offset = tensor<uint64, []>(4804992)))];
            tensor<fp16, [192]> const_17_to_fp16 = const()[name = tensor<string, []>("const_17_to_fp16"), val = tensor<fp16, [192]>(BLOBFILE(path = tensor<string, []>("@model_path/weights/weight.bin"), offset = tensor<uint64, []>(5026240)))];
            tensor<fp16, [1, 192, 34]> input_201_cast_fp16 = conv(bias = const_17_to_fp16, dilations = input_199_dilations_0, groups = input_199_groups_0, pad = input_199_pad_0, pad_type = input_199_pad_type_0, strides = input_199_strides_0, weight = const_16_to_fp16, x = input_197_cast_fp16)[name = tensor<string, []>("input_201_cast_fp16")];
            tensor<fp16, [1, 192, 34]> softplus_33_cast_fp16 = softplus(x = input_201_cast_fp16)[name = tensor<string, []>("softplus_33_cast_fp16")];
            tensor<fp16, [1, 192, 34]> tanh_33_cast_fp16 = tanh(x = softplus_33_cast_fp16)[name = tensor<string, []>("tanh_33_cast_fp16")];
            tensor<fp16, [1, 192, 34]> input_203_cast_fp16 = mul(x = input_201_cast_fp16, y = tanh_33_cast_fp16)[name = tensor<string, []>("input_203_cast_fp16")];
            tensor<string, []> x_17_pad_type_0 = const()[name = tensor<string, []>("x_17_pad_type_0"), val = tensor<string, []>("custom")];
            tensor<int32, [2]> x_17_pad_0 = const()[name = tensor<string, []>("x_17_pad_0"), val = tensor<int32, [2]>([1, 1])];
            tensor<int32, [1]> x_17_strides_0 = const()[name = tensor<string, []>("x_17_strides_0"), val = tensor<int32, [1]>([1])];
            tensor<int32, [1]> x_17_dilations_0 = const()[name = tensor<string, []>("x_17_dilations_0"), val = tensor<int32, [1]>([1])];
            tensor<int32, []> x_17_groups_0 = const()[name = tensor<string, []>("x_17_groups_0"), val = tensor<int32, []>(1)];
            tensor<fp16, [192, 192, 3]> brain_encoder_net_9_res_unit_5_weight_to_fp16 = const()[name = tensor<string, []>("brain_encoder_net_9_res_unit_5_weight_to_fp16"), val = tensor<fp16, [192, 192, 3]>(BLOBFILE(path = tensor<string, []>("@model_path/weights/weight.bin"), offset = tensor<uint64, []>(5026688)))];
            tensor<fp16, [1, 192, 34]> x_17_cast_fp16 = conv(dilations = x_17_dilations_0, groups = x_17_groups_0, pad = x_17_pad_0, pad_type = x_17_pad_type_0, strides = x_17_strides_0, weight = brain_encoder_net_9_res_unit_5_weight_to_fp16, x = input_203_cast_fp16)[name = tensor<string, []>("x_17_cast_fp16")];
            tensor<int32, [1]> input_205_axes_0 = const()[name = tensor<string, []>("input_205_axes_0"), val = tensor<int32, [1]>([-1])];
            tensor<bool, []> input_205_keep_dims_0 = const()[name = tensor<string, []>("input_205_keep_dims_0"), val = tensor<bool, []>(false)];
            tensor<fp16, [1, 192]> input_205_cast_fp16 = reduce_mean(axes = input_205_axes_0, keep_dims = input_205_keep_dims_0, x = x_17_cast_fp16)[name = tensor<string, []>("input_205_cast_fp16")];
            tensor<fp16, [12, 192]> brain_encoder_net_9_ca_shared_mlp_0_weight_to_fp16 = const()[name = tensor<string, []>("brain_encoder_net_9_ca_shared_mlp_0_weight_to_fp16"), val = tensor<fp16, [12, 192]>(BLOBFILE(path = tensor<string, []>("@model_path/weights/weight.bin"), offset = tensor<uint64, []>(5247936)))];
            tensor<fp16, [12]> brain_encoder_net_9_ca_shared_mlp_0_bias_to_fp16 = const()[name = tensor<string, []>("brain_encoder_net_9_ca_shared_mlp_0_bias_to_fp16"), val = tensor<fp16, [12]>(BLOBFILE(path = tensor<string, []>("@model_path/weights/weight.bin"), offset = tensor<uint64, []>(5252608)))];
            tensor<fp16, [1, 12]> linear_32_cast_fp16 = linear(bias = brain_encoder_net_9_ca_shared_mlp_0_bias_to_fp16, weight = brain_encoder_net_9_ca_shared_mlp_0_weight_to_fp16, x = input_205_cast_fp16)[name = tensor<string, []>("linear_32_cast_fp16")];
            tensor<fp16, [1, 12]> softplus_34_cast_fp16 = softplus(x = linear_32_cast_fp16)[name = tensor<string, []>("softplus_34_cast_fp16")];
            tensor<fp16, [1, 12]> tanh_34_cast_fp16 = tanh(x = softplus_34_cast_fp16)[name = tensor<string, []>("tanh_34_cast_fp16")];
            tensor<fp16, [1, 12]> input_209_cast_fp16 = mul(x = linear_32_cast_fp16, y = tanh_34_cast_fp16)[name = tensor<string, []>("input_209_cast_fp16")];
            tensor<fp16, [192, 12]> brain_encoder_net_9_ca_shared_mlp_2_weight_to_fp16 = const()[name = tensor<string, []>("brain_encoder_net_9_ca_shared_mlp_2_weight_to_fp16"), val = tensor<fp16, [192, 12]>(BLOBFILE(path = tensor<string, []>("@model_path/weights/weight.bin"), offset = tensor<uint64, []>(5252736)))];
            tensor<fp16, [192]> brain_encoder_net_9_ca_shared_mlp_2_bias_to_fp16 = const()[name = tensor<string, []>("brain_encoder_net_9_ca_shared_mlp_2_bias_to_fp16"), val = tensor<fp16, [192]>(BLOBFILE(path = tensor<string, []>("@model_path/weights/weight.bin"), offset = tensor<uint64, []>(5257408)))];
            tensor<fp16, [1, 192]> linear_33_cast_fp16 = linear(bias = brain_encoder_net_9_ca_shared_mlp_2_bias_to_fp16, weight = brain_encoder_net_9_ca_shared_mlp_2_weight_to_fp16, x = input_209_cast_fp16)[name = tensor<string, []>("linear_33_cast_fp16")];
            tensor<int32, [1]> input_211_axes_0 = const()[name = tensor<string, []>("input_211_axes_0"), val = tensor<int32, [1]>([-1])];
            tensor<fp16, [1, 192]> input_211_cast_fp16 = reduce_max(axes = input_211_axes_0, keep_dims = var_10, x = x_17_cast_fp16)[name = tensor<string, []>("input_211_cast_fp16")];
            tensor<fp16, [1, 12]> linear_34_cast_fp16 = linear(bias = brain_encoder_net_9_ca_shared_mlp_0_bias_to_fp16, weight = brain_encoder_net_9_ca_shared_mlp_0_weight_to_fp16, x = input_211_cast_fp16)[name = tensor<string, []>("linear_34_cast_fp16")];
            tensor<fp16, [1, 12]> softplus_35_cast_fp16 = softplus(x = linear_34_cast_fp16)[name = tensor<string, []>("softplus_35_cast_fp16")];
            tensor<fp16, [1, 12]> tanh_35_cast_fp16 = tanh(x = softplus_35_cast_fp16)[name = tensor<string, []>("tanh_35_cast_fp16")];
            tensor<fp16, [1, 12]> input_215_cast_fp16 = mul(x = linear_34_cast_fp16, y = tanh_35_cast_fp16)[name = tensor<string, []>("input_215_cast_fp16")];
            tensor<fp16, [1, 192]> linear_35_cast_fp16 = linear(bias = brain_encoder_net_9_ca_shared_mlp_2_bias_to_fp16, weight = brain_encoder_net_9_ca_shared_mlp_2_weight_to_fp16, x = input_215_cast_fp16)[name = tensor<string, []>("linear_35_cast_fp16")];
            tensor<fp16, [1, 192]> var_582_cast_fp16 = add(x = linear_33_cast_fp16, y = linear_35_cast_fp16)[name = tensor<string, []>("op_582_cast_fp16")];
            tensor<fp16, [1, 192]> weight_91_cast_fp16 = sigmoid(x = var_582_cast_fp16)[name = tensor<string, []>("weight_91_cast_fp16")];
            tensor<int32, [1]> var_584_axes_0 = const()[name = tensor<string, []>("op_584_axes_0"), val = tensor<int32, [1]>([-1])];
            tensor<fp16, [1, 192, 1]> var_584_cast_fp16 = expand_dims(axes = var_584_axes_0, x = weight_91_cast_fp16)[name = tensor<string, []>("op_584_cast_fp16")];
            tensor<fp16, [1, 192, 34]> out_17_cast_fp16 = mul(x = var_584_cast_fp16, y = x_17_cast_fp16)[name = tensor<string, []>("out_17_cast_fp16")];
            tensor<fp16, [1, 192, 34]> input_217_cast_fp16 = add(x = out_17_cast_fp16, y = input_193_cast_fp16)[name = tensor<string, []>("input_217_cast_fp16")];
            tensor<fp16, [192]> brain_encoder_net_10_res_unit_0_running_mean_to_fp16 = const()[name = tensor<string, []>("brain_encoder_net_10_res_unit_0_running_mean_to_fp16"), val = tensor<fp16, [192]>(BLOBFILE(path = tensor<string, []>("@model_path/weights/weight.bin"), offset = tensor<uint64, []>(5257856)))];
            tensor<fp16, [192]> brain_encoder_net_10_res_unit_0_running_var_to_fp16 = const()[name = tensor<string, []>("brain_encoder_net_10_res_unit_0_running_var_to_fp16"), val = tensor<fp16, [192]>(BLOBFILE(path = tensor<string, []>("@model_path/weights/weight.bin"), offset = tensor<uint64, []>(5258304)))];
            tensor<fp16, [192]> brain_encoder_net_10_res_unit_0_weight_to_fp16 = const()[name = tensor<string, []>("brain_encoder_net_10_res_unit_0_weight_to_fp16"), val = tensor<fp16, [192]>(BLOBFILE(path = tensor<string, []>("@model_path/weights/weight.bin"), offset = tensor<uint64, []>(5258752)))];
            tensor<fp16, [192]> brain_encoder_net_10_res_unit_0_bias_to_fp16 = const()[name = tensor<string, []>("brain_encoder_net_10_res_unit_0_bias_to_fp16"), val = tensor<fp16, [192]>(BLOBFILE(path = tensor<string, []>("@model_path/weights/weight.bin"), offset = tensor<uint64, []>(5259200)))];
            tensor<fp16, [1, 192, 34]> input_219_cast_fp16 = batch_norm(beta = brain_encoder_net_10_res_unit_0_bias_to_fp16, epsilon = var_6_to_fp16, gamma = brain_encoder_net_10_res_unit_0_weight_to_fp16, mean = brain_encoder_net_10_res_unit_0_running_mean_to_fp16, variance = brain_encoder_net_10_res_unit_0_running_var_to_fp16, x = input_217_cast_fp16)[name = tensor<string, []>("input_219_cast_fp16")];
            tensor<fp16, [1, 192, 34]> softplus_36_cast_fp16 = softplus(x = input_219_cast_fp16)[name = tensor<string, []>("softplus_36_cast_fp16")];
            tensor<fp16, [1, 192, 34]> tanh_36_cast_fp16 = tanh(x = softplus_36_cast_fp16)[name = tensor<string, []>("tanh_36_cast_fp16")];
            tensor<fp16, [1, 192, 34]> input_221_cast_fp16 = mul(x = input_219_cast_fp16, y = tanh_36_cast_fp16)[name = tensor<string, []>("input_221_cast_fp16")];
            tensor<string, []> input_223_pad_type_0 = const()[name = tensor<string, []>("input_223_pad_type_0"), val = tensor<string, []>("custom")];
            tensor<int32, [2]> input_223_pad_0 = const()[name = tensor<string, []>("input_223_pad_0"), val = tensor<int32, [2]>([1, 1])];
            tensor<int32, [1]> input_223_strides_0 = const()[name = tensor<string, []>("input_223_strides_0"), val = tensor<int32, [1]>([1])];
            tensor<int32, [1]> input_223_dilations_0 = const()[name = tensor<string, []>("input_223_dilations_0"), val = tensor<int32, [1]>([1])];
            tensor<int32, []> input_223_groups_0 = const()[name = tensor<string, []>("input_223_groups_0"), val = tensor<int32, []>(1)];
            tensor<fp16, [192, 192, 3]> const_18_to_fp16 = const()[name = tensor<string, []>("const_18_to_fp16"), val = tensor<fp16, [192, 192, 3]>(BLOBFILE(path = tensor<string, []>("@model_path/weights/weight.bin"), offset = tensor<uint64, []>(5259648)))];
            tensor<fp16, [192]> const_19_to_fp16 = const()[name = tensor<string, []>("const_19_to_fp16"), val = tensor<fp16, [192]>(BLOBFILE(path = tensor<string, []>("@model_path/weights/weight.bin"), offset = tensor<uint64, []>(5480896)))];
            tensor<fp16, [1, 192, 34]> input_225_cast_fp16 = conv(bias = const_19_to_fp16, dilations = input_223_dilations_0, groups = input_223_groups_0, pad = input_223_pad_0, pad_type = input_223_pad_type_0, strides = input_223_strides_0, weight = const_18_to_fp16, x = input_221_cast_fp16)[name = tensor<string, []>("input_225_cast_fp16")];
            tensor<fp16, [1, 192, 34]> softplus_37_cast_fp16 = softplus(x = input_225_cast_fp16)[name = tensor<string, []>("softplus_37_cast_fp16")];
            tensor<fp16, [1, 192, 34]> tanh_37_cast_fp16 = tanh(x = softplus_37_cast_fp16)[name = tensor<string, []>("tanh_37_cast_fp16")];
            tensor<fp16, [1, 192, 34]> input_227_cast_fp16 = mul(x = input_225_cast_fp16, y = tanh_37_cast_fp16)[name = tensor<string, []>("input_227_cast_fp16")];
            tensor<string, []> x_19_pad_type_0 = const()[name = tensor<string, []>("x_19_pad_type_0"), val = tensor<string, []>("custom")];
            tensor<int32, [2]> x_19_pad_0 = const()[name = tensor<string, []>("x_19_pad_0"), val = tensor<int32, [2]>([1, 1])];
            tensor<int32, [1]> x_19_strides_0 = const()[name = tensor<string, []>("x_19_strides_0"), val = tensor<int32, [1]>([1])];
            tensor<int32, [1]> x_19_dilations_0 = const()[name = tensor<string, []>("x_19_dilations_0"), val = tensor<int32, [1]>([1])];
            tensor<int32, []> x_19_groups_0 = const()[name = tensor<string, []>("x_19_groups_0"), val = tensor<int32, []>(1)];
            tensor<fp16, [192, 192, 3]> brain_encoder_net_10_res_unit_5_weight_to_fp16 = const()[name = tensor<string, []>("brain_encoder_net_10_res_unit_5_weight_to_fp16"), val = tensor<fp16, [192, 192, 3]>(BLOBFILE(path = tensor<string, []>("@model_path/weights/weight.bin"), offset = tensor<uint64, []>(5481344)))];
            tensor<fp16, [1, 192, 34]> x_19_cast_fp16 = conv(dilations = x_19_dilations_0, groups = x_19_groups_0, pad = x_19_pad_0, pad_type = x_19_pad_type_0, strides = x_19_strides_0, weight = brain_encoder_net_10_res_unit_5_weight_to_fp16, x = input_227_cast_fp16)[name = tensor<string, []>("x_19_cast_fp16")];
            tensor<int32, [1]> input_229_axes_0 = const()[name = tensor<string, []>("input_229_axes_0"), val = tensor<int32, [1]>([-1])];
            tensor<bool, []> input_229_keep_dims_0 = const()[name = tensor<string, []>("input_229_keep_dims_0"), val = tensor<bool, []>(false)];
            tensor<fp16, [1, 192]> input_229_cast_fp16 = reduce_mean(axes = input_229_axes_0, keep_dims = input_229_keep_dims_0, x = x_19_cast_fp16)[name = tensor<string, []>("input_229_cast_fp16")];
            tensor<fp16, [12, 192]> brain_encoder_net_10_ca_shared_mlp_0_weight_to_fp16 = const()[name = tensor<string, []>("brain_encoder_net_10_ca_shared_mlp_0_weight_to_fp16"), val = tensor<fp16, [12, 192]>(BLOBFILE(path = tensor<string, []>("@model_path/weights/weight.bin"), offset = tensor<uint64, []>(5702592)))];
            tensor<fp16, [12]> brain_encoder_net_10_ca_shared_mlp_0_bias_to_fp16 = const()[name = tensor<string, []>("brain_encoder_net_10_ca_shared_mlp_0_bias_to_fp16"), val = tensor<fp16, [12]>(BLOBFILE(path = tensor<string, []>("@model_path/weights/weight.bin"), offset = tensor<uint64, []>(5707264)))];
            tensor<fp16, [1, 12]> linear_36_cast_fp16 = linear(bias = brain_encoder_net_10_ca_shared_mlp_0_bias_to_fp16, weight = brain_encoder_net_10_ca_shared_mlp_0_weight_to_fp16, x = input_229_cast_fp16)[name = tensor<string, []>("linear_36_cast_fp16")];
            tensor<fp16, [1, 12]> softplus_38_cast_fp16 = softplus(x = linear_36_cast_fp16)[name = tensor<string, []>("softplus_38_cast_fp16")];
            tensor<fp16, [1, 12]> tanh_38_cast_fp16 = tanh(x = softplus_38_cast_fp16)[name = tensor<string, []>("tanh_38_cast_fp16")];
            tensor<fp16, [1, 12]> input_233_cast_fp16 = mul(x = linear_36_cast_fp16, y = tanh_38_cast_fp16)[name = tensor<string, []>("input_233_cast_fp16")];
            tensor<fp16, [192, 12]> brain_encoder_net_10_ca_shared_mlp_2_weight_to_fp16 = const()[name = tensor<string, []>("brain_encoder_net_10_ca_shared_mlp_2_weight_to_fp16"), val = tensor<fp16, [192, 12]>(BLOBFILE(path = tensor<string, []>("@model_path/weights/weight.bin"), offset = tensor<uint64, []>(5707392)))];
            tensor<fp16, [192]> brain_encoder_net_10_ca_shared_mlp_2_bias_to_fp16 = const()[name = tensor<string, []>("brain_encoder_net_10_ca_shared_mlp_2_bias_to_fp16"), val = tensor<fp16, [192]>(BLOBFILE(path = tensor<string, []>("@model_path/weights/weight.bin"), offset = tensor<uint64, []>(5712064)))];
            tensor<fp16, [1, 192]> linear_37_cast_fp16 = linear(bias = brain_encoder_net_10_ca_shared_mlp_2_bias_to_fp16, weight = brain_encoder_net_10_ca_shared_mlp_2_weight_to_fp16, x = input_233_cast_fp16)[name = tensor<string, []>("linear_37_cast_fp16")];
            tensor<int32, [1]> input_235_axes_0 = const()[name = tensor<string, []>("input_235_axes_0"), val = tensor<int32, [1]>([-1])];
            tensor<fp16, [1, 192]> input_235_cast_fp16 = reduce_max(axes = input_235_axes_0, keep_dims = var_10, x = x_19_cast_fp16)[name = tensor<string, []>("input_235_cast_fp16")];
            tensor<fp16, [1, 12]> linear_38_cast_fp16 = linear(bias = brain_encoder_net_10_ca_shared_mlp_0_bias_to_fp16, weight = brain_encoder_net_10_ca_shared_mlp_0_weight_to_fp16, x = input_235_cast_fp16)[name = tensor<string, []>("linear_38_cast_fp16")];
            tensor<fp16, [1, 12]> softplus_39_cast_fp16 = softplus(x = linear_38_cast_fp16)[name = tensor<string, []>("softplus_39_cast_fp16")];
            tensor<fp16, [1, 12]> tanh_39_cast_fp16 = tanh(x = softplus_39_cast_fp16)[name = tensor<string, []>("tanh_39_cast_fp16")];
            tensor<fp16, [1, 12]> input_239_cast_fp16 = mul(x = linear_38_cast_fp16, y = tanh_39_cast_fp16)[name = tensor<string, []>("input_239_cast_fp16")];
            tensor<fp16, [1, 192]> linear_39_cast_fp16 = linear(bias = brain_encoder_net_10_ca_shared_mlp_2_bias_to_fp16, weight = brain_encoder_net_10_ca_shared_mlp_2_weight_to_fp16, x = input_239_cast_fp16)[name = tensor<string, []>("linear_39_cast_fp16")];
            tensor<fp16, [1, 192]> var_640_cast_fp16 = add(x = linear_37_cast_fp16, y = linear_39_cast_fp16)[name = tensor<string, []>("op_640_cast_fp16")];
            tensor<fp16, [1, 192]> weight_101_cast_fp16 = sigmoid(x = var_640_cast_fp16)[name = tensor<string, []>("weight_101_cast_fp16")];
            tensor<int32, [1]> var_642_axes_0 = const()[name = tensor<string, []>("op_642_axes_0"), val = tensor<int32, [1]>([-1])];
            tensor<fp16, [1, 192, 1]> var_642_cast_fp16 = expand_dims(axes = var_642_axes_0, x = weight_101_cast_fp16)[name = tensor<string, []>("op_642_cast_fp16")];
            tensor<fp16, [1, 192, 34]> out_19_cast_fp16 = mul(x = var_642_cast_fp16, y = x_19_cast_fp16)[name = tensor<string, []>("out_19_cast_fp16")];
            tensor<fp16, [1, 192, 34]> input_241_cast_fp16 = add(x = out_19_cast_fp16, y = input_217_cast_fp16)[name = tensor<string, []>("input_241_cast_fp16")];
            tensor<fp16, [192]> brain_encoder_net_11_res_unit_0_running_mean_to_fp16 = const()[name = tensor<string, []>("brain_encoder_net_11_res_unit_0_running_mean_to_fp16"), val = tensor<fp16, [192]>(BLOBFILE(path = tensor<string, []>("@model_path/weights/weight.bin"), offset = tensor<uint64, []>(5712512)))];
            tensor<fp16, [192]> brain_encoder_net_11_res_unit_0_running_var_to_fp16 = const()[name = tensor<string, []>("brain_encoder_net_11_res_unit_0_running_var_to_fp16"), val = tensor<fp16, [192]>(BLOBFILE(path = tensor<string, []>("@model_path/weights/weight.bin"), offset = tensor<uint64, []>(5712960)))];
            tensor<fp16, [192]> brain_encoder_net_11_res_unit_0_weight_to_fp16 = const()[name = tensor<string, []>("brain_encoder_net_11_res_unit_0_weight_to_fp16"), val = tensor<fp16, [192]>(BLOBFILE(path = tensor<string, []>("@model_path/weights/weight.bin"), offset = tensor<uint64, []>(5713408)))];
            tensor<fp16, [192]> brain_encoder_net_11_res_unit_0_bias_to_fp16 = const()[name = tensor<string, []>("brain_encoder_net_11_res_unit_0_bias_to_fp16"), val = tensor<fp16, [192]>(BLOBFILE(path = tensor<string, []>("@model_path/weights/weight.bin"), offset = tensor<uint64, []>(5713856)))];
            tensor<fp16, [1, 192, 34]> input_243_cast_fp16 = batch_norm(beta = brain_encoder_net_11_res_unit_0_bias_to_fp16, epsilon = var_6_to_fp16, gamma = brain_encoder_net_11_res_unit_0_weight_to_fp16, mean = brain_encoder_net_11_res_unit_0_running_mean_to_fp16, variance = brain_encoder_net_11_res_unit_0_running_var_to_fp16, x = input_241_cast_fp16)[name = tensor<string, []>("input_243_cast_fp16")];
            tensor<fp16, [1, 192, 34]> softplus_40_cast_fp16 = softplus(x = input_243_cast_fp16)[name = tensor<string, []>("softplus_40_cast_fp16")];
            tensor<fp16, [1, 192, 34]> tanh_40_cast_fp16 = tanh(x = softplus_40_cast_fp16)[name = tensor<string, []>("tanh_40_cast_fp16")];
            tensor<fp16, [1, 192, 34]> input_245_cast_fp16 = mul(x = input_243_cast_fp16, y = tanh_40_cast_fp16)[name = tensor<string, []>("input_245_cast_fp16")];
            tensor<string, []> input_247_pad_type_0 = const()[name = tensor<string, []>("input_247_pad_type_0"), val = tensor<string, []>("custom")];
            tensor<int32, [2]> input_247_pad_0 = const()[name = tensor<string, []>("input_247_pad_0"), val = tensor<int32, [2]>([1, 1])];
            tensor<int32, [1]> input_247_strides_0 = const()[name = tensor<string, []>("input_247_strides_0"), val = tensor<int32, [1]>([1])];
            tensor<int32, [1]> input_247_dilations_0 = const()[name = tensor<string, []>("input_247_dilations_0"), val = tensor<int32, [1]>([1])];
            tensor<int32, []> input_247_groups_0 = const()[name = tensor<string, []>("input_247_groups_0"), val = tensor<int32, []>(1)];
            tensor<fp16, [192, 192, 3]> const_20_to_fp16 = const()[name = tensor<string, []>("const_20_to_fp16"), val = tensor<fp16, [192, 192, 3]>(BLOBFILE(path = tensor<string, []>("@model_path/weights/weight.bin"), offset = tensor<uint64, []>(5714304)))];
            tensor<fp16, [192]> const_21_to_fp16 = const()[name = tensor<string, []>("const_21_to_fp16"), val = tensor<fp16, [192]>(BLOBFILE(path = tensor<string, []>("@model_path/weights/weight.bin"), offset = tensor<uint64, []>(5935552)))];
            tensor<fp16, [1, 192, 34]> input_249_cast_fp16 = conv(bias = const_21_to_fp16, dilations = input_247_dilations_0, groups = input_247_groups_0, pad = input_247_pad_0, pad_type = input_247_pad_type_0, strides = input_247_strides_0, weight = const_20_to_fp16, x = input_245_cast_fp16)[name = tensor<string, []>("input_249_cast_fp16")];
            tensor<fp16, [1, 192, 34]> softplus_41_cast_fp16 = softplus(x = input_249_cast_fp16)[name = tensor<string, []>("softplus_41_cast_fp16")];
            tensor<fp16, [1, 192, 34]> tanh_41_cast_fp16 = tanh(x = softplus_41_cast_fp16)[name = tensor<string, []>("tanh_41_cast_fp16")];
            tensor<fp16, [1, 192, 34]> input_251_cast_fp16 = mul(x = input_249_cast_fp16, y = tanh_41_cast_fp16)[name = tensor<string, []>("input_251_cast_fp16")];
            tensor<string, []> x_21_pad_type_0 = const()[name = tensor<string, []>("x_21_pad_type_0"), val = tensor<string, []>("custom")];
            tensor<int32, [2]> x_21_pad_0 = const()[name = tensor<string, []>("x_21_pad_0"), val = tensor<int32, [2]>([1, 1])];
            tensor<int32, [1]> x_21_strides_0 = const()[name = tensor<string, []>("x_21_strides_0"), val = tensor<int32, [1]>([1])];
            tensor<int32, [1]> x_21_dilations_0 = const()[name = tensor<string, []>("x_21_dilations_0"), val = tensor<int32, [1]>([1])];
            tensor<int32, []> x_21_groups_0 = const()[name = tensor<string, []>("x_21_groups_0"), val = tensor<int32, []>(1)];
            tensor<fp16, [192, 192, 3]> brain_encoder_net_11_res_unit_5_weight_to_fp16 = const()[name = tensor<string, []>("brain_encoder_net_11_res_unit_5_weight_to_fp16"), val = tensor<fp16, [192, 192, 3]>(BLOBFILE(path = tensor<string, []>("@model_path/weights/weight.bin"), offset = tensor<uint64, []>(5936000)))];
            tensor<fp16, [1, 192, 34]> x_21_cast_fp16 = conv(dilations = x_21_dilations_0, groups = x_21_groups_0, pad = x_21_pad_0, pad_type = x_21_pad_type_0, strides = x_21_strides_0, weight = brain_encoder_net_11_res_unit_5_weight_to_fp16, x = input_251_cast_fp16)[name = tensor<string, []>("x_21_cast_fp16")];
            tensor<int32, [1]> input_253_axes_0 = const()[name = tensor<string, []>("input_253_axes_0"), val = tensor<int32, [1]>([-1])];
            tensor<bool, []> input_253_keep_dims_0 = const()[name = tensor<string, []>("input_253_keep_dims_0"), val = tensor<bool, []>(false)];
            tensor<fp16, [1, 192]> input_253_cast_fp16 = reduce_mean(axes = input_253_axes_0, keep_dims = input_253_keep_dims_0, x = x_21_cast_fp16)[name = tensor<string, []>("input_253_cast_fp16")];
            tensor<fp16, [12, 192]> brain_encoder_net_11_ca_shared_mlp_0_weight_to_fp16 = const()[name = tensor<string, []>("brain_encoder_net_11_ca_shared_mlp_0_weight_to_fp16"), val = tensor<fp16, [12, 192]>(BLOBFILE(path = tensor<string, []>("@model_path/weights/weight.bin"), offset = tensor<uint64, []>(6157248)))];
            tensor<fp16, [12]> brain_encoder_net_11_ca_shared_mlp_0_bias_to_fp16 = const()[name = tensor<string, []>("brain_encoder_net_11_ca_shared_mlp_0_bias_to_fp16"), val = tensor<fp16, [12]>(BLOBFILE(path = tensor<string, []>("@model_path/weights/weight.bin"), offset = tensor<uint64, []>(6161920)))];
            tensor<fp16, [1, 12]> linear_40_cast_fp16 = linear(bias = brain_encoder_net_11_ca_shared_mlp_0_bias_to_fp16, weight = brain_encoder_net_11_ca_shared_mlp_0_weight_to_fp16, x = input_253_cast_fp16)[name = tensor<string, []>("linear_40_cast_fp16")];
            tensor<fp16, [1, 12]> softplus_42_cast_fp16 = softplus(x = linear_40_cast_fp16)[name = tensor<string, []>("softplus_42_cast_fp16")];
            tensor<fp16, [1, 12]> tanh_42_cast_fp16 = tanh(x = softplus_42_cast_fp16)[name = tensor<string, []>("tanh_42_cast_fp16")];
            tensor<fp16, [1, 12]> input_257_cast_fp16 = mul(x = linear_40_cast_fp16, y = tanh_42_cast_fp16)[name = tensor<string, []>("input_257_cast_fp16")];
            tensor<fp16, [192, 12]> brain_encoder_net_11_ca_shared_mlp_2_weight_to_fp16 = const()[name = tensor<string, []>("brain_encoder_net_11_ca_shared_mlp_2_weight_to_fp16"), val = tensor<fp16, [192, 12]>(BLOBFILE(path = tensor<string, []>("@model_path/weights/weight.bin"), offset = tensor<uint64, []>(6162048)))];
            tensor<fp16, [192]> brain_encoder_net_11_ca_shared_mlp_2_bias_to_fp16 = const()[name = tensor<string, []>("brain_encoder_net_11_ca_shared_mlp_2_bias_to_fp16"), val = tensor<fp16, [192]>(BLOBFILE(path = tensor<string, []>("@model_path/weights/weight.bin"), offset = tensor<uint64, []>(6166720)))];
            tensor<fp16, [1, 192]> linear_41_cast_fp16 = linear(bias = brain_encoder_net_11_ca_shared_mlp_2_bias_to_fp16, weight = brain_encoder_net_11_ca_shared_mlp_2_weight_to_fp16, x = input_257_cast_fp16)[name = tensor<string, []>("linear_41_cast_fp16")];
            tensor<int32, [1]> input_259_axes_0 = const()[name = tensor<string, []>("input_259_axes_0"), val = tensor<int32, [1]>([-1])];
            tensor<fp16, [1, 192]> input_259_cast_fp16 = reduce_max(axes = input_259_axes_0, keep_dims = var_10, x = x_21_cast_fp16)[name = tensor<string, []>("input_259_cast_fp16")];
            tensor<fp16, [1, 12]> linear_42_cast_fp16 = linear(bias = brain_encoder_net_11_ca_shared_mlp_0_bias_to_fp16, weight = brain_encoder_net_11_ca_shared_mlp_0_weight_to_fp16, x = input_259_cast_fp16)[name = tensor<string, []>("linear_42_cast_fp16")];
            tensor<fp16, [1, 12]> softplus_43_cast_fp16 = softplus(x = linear_42_cast_fp16)[name = tensor<string, []>("softplus_43_cast_fp16")];
            tensor<fp16, [1, 12]> tanh_43_cast_fp16 = tanh(x = softplus_43_cast_fp16)[name = tensor<string, []>("tanh_43_cast_fp16")];
            tensor<fp16, [1, 12]> input_263_cast_fp16 = mul(x = linear_42_cast_fp16, y = tanh_43_cast_fp16)[name = tensor<string, []>("input_263_cast_fp16")];
            tensor<fp16, [1, 192]> linear_43_cast_fp16 = linear(bias = brain_encoder_net_11_ca_shared_mlp_2_bias_to_fp16, weight = brain_encoder_net_11_ca_shared_mlp_2_weight_to_fp16, x = input_263_cast_fp16)[name = tensor<string, []>("linear_43_cast_fp16")];
            tensor<fp16, [1, 192]> var_698_cast_fp16 = add(x = linear_41_cast_fp16, y = linear_43_cast_fp16)[name = tensor<string, []>("op_698_cast_fp16")];
            tensor<fp16, [1, 192]> weight_111_cast_fp16 = sigmoid(x = var_698_cast_fp16)[name = tensor<string, []>("weight_111_cast_fp16")];
            tensor<int32, [1]> var_700_axes_0 = const()[name = tensor<string, []>("op_700_axes_0"), val = tensor<int32, [1]>([-1])];
            tensor<fp16, [1, 192, 1]> var_700_cast_fp16 = expand_dims(axes = var_700_axes_0, x = weight_111_cast_fp16)[name = tensor<string, []>("op_700_cast_fp16")];
            tensor<fp16, [1, 192, 34]> out_21_cast_fp16 = mul(x = var_700_cast_fp16, y = x_21_cast_fp16)[name = tensor<string, []>("out_21_cast_fp16")];
            tensor<fp16, [1, 192, 34]> input_265_cast_fp16 = add(x = out_21_cast_fp16, y = input_241_cast_fp16)[name = tensor<string, []>("input_265_cast_fp16")];
            tensor<fp16, [192]> brain_encoder_net_12_res_unit_0_running_mean_to_fp16 = const()[name = tensor<string, []>("brain_encoder_net_12_res_unit_0_running_mean_to_fp16"), val = tensor<fp16, [192]>(BLOBFILE(path = tensor<string, []>("@model_path/weights/weight.bin"), offset = tensor<uint64, []>(6167168)))];
            tensor<fp16, [192]> brain_encoder_net_12_res_unit_0_running_var_to_fp16 = const()[name = tensor<string, []>("brain_encoder_net_12_res_unit_0_running_var_to_fp16"), val = tensor<fp16, [192]>(BLOBFILE(path = tensor<string, []>("@model_path/weights/weight.bin"), offset = tensor<uint64, []>(6167616)))];
            tensor<fp16, [192]> brain_encoder_net_12_res_unit_0_weight_to_fp16 = const()[name = tensor<string, []>("brain_encoder_net_12_res_unit_0_weight_to_fp16"), val = tensor<fp16, [192]>(BLOBFILE(path = tensor<string, []>("@model_path/weights/weight.bin"), offset = tensor<uint64, []>(6168064)))];
            tensor<fp16, [192]> brain_encoder_net_12_res_unit_0_bias_to_fp16 = const()[name = tensor<string, []>("brain_encoder_net_12_res_unit_0_bias_to_fp16"), val = tensor<fp16, [192]>(BLOBFILE(path = tensor<string, []>("@model_path/weights/weight.bin"), offset = tensor<uint64, []>(6168512)))];
            tensor<fp16, [1, 192, 34]> input_267_cast_fp16 = batch_norm(beta = brain_encoder_net_12_res_unit_0_bias_to_fp16, epsilon = var_6_to_fp16, gamma = brain_encoder_net_12_res_unit_0_weight_to_fp16, mean = brain_encoder_net_12_res_unit_0_running_mean_to_fp16, variance = brain_encoder_net_12_res_unit_0_running_var_to_fp16, x = input_265_cast_fp16)[name = tensor<string, []>("input_267_cast_fp16")];
            tensor<fp16, [1, 192, 34]> softplus_44_cast_fp16 = softplus(x = input_267_cast_fp16)[name = tensor<string, []>("softplus_44_cast_fp16")];
            tensor<fp16, [1, 192, 34]> tanh_44_cast_fp16 = tanh(x = softplus_44_cast_fp16)[name = tensor<string, []>("tanh_44_cast_fp16")];
            tensor<fp16, [1, 192, 34]> input_269_cast_fp16 = mul(x = input_267_cast_fp16, y = tanh_44_cast_fp16)[name = tensor<string, []>("input_269_cast_fp16")];
            tensor<string, []> input_271_pad_type_0 = const()[name = tensor<string, []>("input_271_pad_type_0"), val = tensor<string, []>("custom")];
            tensor<int32, [2]> input_271_pad_0 = const()[name = tensor<string, []>("input_271_pad_0"), val = tensor<int32, [2]>([1, 1])];
            tensor<int32, [1]> input_271_strides_0 = const()[name = tensor<string, []>("input_271_strides_0"), val = tensor<int32, [1]>([1])];
            tensor<int32, [1]> input_271_dilations_0 = const()[name = tensor<string, []>("input_271_dilations_0"), val = tensor<int32, [1]>([1])];
            tensor<int32, []> input_271_groups_0 = const()[name = tensor<string, []>("input_271_groups_0"), val = tensor<int32, []>(1)];
            tensor<fp16, [192, 192, 3]> const_22_to_fp16 = const()[name = tensor<string, []>("const_22_to_fp16"), val = tensor<fp16, [192, 192, 3]>(BLOBFILE(path = tensor<string, []>("@model_path/weights/weight.bin"), offset = tensor<uint64, []>(6168960)))];
            tensor<fp16, [192]> const_23_to_fp16 = const()[name = tensor<string, []>("const_23_to_fp16"), val = tensor<fp16, [192]>(BLOBFILE(path = tensor<string, []>("@model_path/weights/weight.bin"), offset = tensor<uint64, []>(6390208)))];
            tensor<fp16, [1, 192, 34]> input_273_cast_fp16 = conv(bias = const_23_to_fp16, dilations = input_271_dilations_0, groups = input_271_groups_0, pad = input_271_pad_0, pad_type = input_271_pad_type_0, strides = input_271_strides_0, weight = const_22_to_fp16, x = input_269_cast_fp16)[name = tensor<string, []>("input_273_cast_fp16")];
            tensor<fp16, [1, 192, 34]> softplus_45_cast_fp16 = softplus(x = input_273_cast_fp16)[name = tensor<string, []>("softplus_45_cast_fp16")];
            tensor<fp16, [1, 192, 34]> tanh_45_cast_fp16 = tanh(x = softplus_45_cast_fp16)[name = tensor<string, []>("tanh_45_cast_fp16")];
            tensor<fp16, [1, 192, 34]> input_275_cast_fp16 = mul(x = input_273_cast_fp16, y = tanh_45_cast_fp16)[name = tensor<string, []>("input_275_cast_fp16")];
            tensor<string, []> x_23_pad_type_0 = const()[name = tensor<string, []>("x_23_pad_type_0"), val = tensor<string, []>("custom")];
            tensor<int32, [2]> x_23_pad_0 = const()[name = tensor<string, []>("x_23_pad_0"), val = tensor<int32, [2]>([1, 1])];
            tensor<int32, [1]> x_23_strides_0 = const()[name = tensor<string, []>("x_23_strides_0"), val = tensor<int32, [1]>([1])];
            tensor<int32, [1]> x_23_dilations_0 = const()[name = tensor<string, []>("x_23_dilations_0"), val = tensor<int32, [1]>([1])];
            tensor<int32, []> x_23_groups_0 = const()[name = tensor<string, []>("x_23_groups_0"), val = tensor<int32, []>(1)];
            tensor<fp16, [192, 192, 3]> brain_encoder_net_12_res_unit_5_weight_to_fp16 = const()[name = tensor<string, []>("brain_encoder_net_12_res_unit_5_weight_to_fp16"), val = tensor<fp16, [192, 192, 3]>(BLOBFILE(path = tensor<string, []>("@model_path/weights/weight.bin"), offset = tensor<uint64, []>(6390656)))];
            tensor<fp16, [1, 192, 34]> x_23_cast_fp16 = conv(dilations = x_23_dilations_0, groups = x_23_groups_0, pad = x_23_pad_0, pad_type = x_23_pad_type_0, strides = x_23_strides_0, weight = brain_encoder_net_12_res_unit_5_weight_to_fp16, x = input_275_cast_fp16)[name = tensor<string, []>("x_23_cast_fp16")];
            tensor<int32, [1]> input_277_axes_0 = const()[name = tensor<string, []>("input_277_axes_0"), val = tensor<int32, [1]>([-1])];
            tensor<bool, []> input_277_keep_dims_0 = const()[name = tensor<string, []>("input_277_keep_dims_0"), val = tensor<bool, []>(false)];
            tensor<fp16, [1, 192]> input_277_cast_fp16 = reduce_mean(axes = input_277_axes_0, keep_dims = input_277_keep_dims_0, x = x_23_cast_fp16)[name = tensor<string, []>("input_277_cast_fp16")];
            tensor<fp16, [12, 192]> brain_encoder_net_12_ca_shared_mlp_0_weight_to_fp16 = const()[name = tensor<string, []>("brain_encoder_net_12_ca_shared_mlp_0_weight_to_fp16"), val = tensor<fp16, [12, 192]>(BLOBFILE(path = tensor<string, []>("@model_path/weights/weight.bin"), offset = tensor<uint64, []>(6611904)))];
            tensor<fp16, [12]> brain_encoder_net_12_ca_shared_mlp_0_bias_to_fp16 = const()[name = tensor<string, []>("brain_encoder_net_12_ca_shared_mlp_0_bias_to_fp16"), val = tensor<fp16, [12]>(BLOBFILE(path = tensor<string, []>("@model_path/weights/weight.bin"), offset = tensor<uint64, []>(6616576)))];
            tensor<fp16, [1, 12]> linear_44_cast_fp16 = linear(bias = brain_encoder_net_12_ca_shared_mlp_0_bias_to_fp16, weight = brain_encoder_net_12_ca_shared_mlp_0_weight_to_fp16, x = input_277_cast_fp16)[name = tensor<string, []>("linear_44_cast_fp16")];
            tensor<fp16, [1, 12]> softplus_46_cast_fp16 = softplus(x = linear_44_cast_fp16)[name = tensor<string, []>("softplus_46_cast_fp16")];
            tensor<fp16, [1, 12]> tanh_46_cast_fp16 = tanh(x = softplus_46_cast_fp16)[name = tensor<string, []>("tanh_46_cast_fp16")];
            tensor<fp16, [1, 12]> input_281_cast_fp16 = mul(x = linear_44_cast_fp16, y = tanh_46_cast_fp16)[name = tensor<string, []>("input_281_cast_fp16")];
            tensor<fp16, [192, 12]> brain_encoder_net_12_ca_shared_mlp_2_weight_to_fp16 = const()[name = tensor<string, []>("brain_encoder_net_12_ca_shared_mlp_2_weight_to_fp16"), val = tensor<fp16, [192, 12]>(BLOBFILE(path = tensor<string, []>("@model_path/weights/weight.bin"), offset = tensor<uint64, []>(6616704)))];
            tensor<fp16, [192]> brain_encoder_net_12_ca_shared_mlp_2_bias_to_fp16 = const()[name = tensor<string, []>("brain_encoder_net_12_ca_shared_mlp_2_bias_to_fp16"), val = tensor<fp16, [192]>(BLOBFILE(path = tensor<string, []>("@model_path/weights/weight.bin"), offset = tensor<uint64, []>(6621376)))];
            tensor<fp16, [1, 192]> linear_45_cast_fp16 = linear(bias = brain_encoder_net_12_ca_shared_mlp_2_bias_to_fp16, weight = brain_encoder_net_12_ca_shared_mlp_2_weight_to_fp16, x = input_281_cast_fp16)[name = tensor<string, []>("linear_45_cast_fp16")];
            tensor<int32, [1]> input_283_axes_0 = const()[name = tensor<string, []>("input_283_axes_0"), val = tensor<int32, [1]>([-1])];
            tensor<fp16, [1, 192]> input_283_cast_fp16 = reduce_max(axes = input_283_axes_0, keep_dims = var_10, x = x_23_cast_fp16)[name = tensor<string, []>("input_283_cast_fp16")];
            tensor<fp16, [1, 12]> linear_46_cast_fp16 = linear(bias = brain_encoder_net_12_ca_shared_mlp_0_bias_to_fp16, weight = brain_encoder_net_12_ca_shared_mlp_0_weight_to_fp16, x = input_283_cast_fp16)[name = tensor<string, []>("linear_46_cast_fp16")];
            tensor<fp16, [1, 12]> softplus_47_cast_fp16 = softplus(x = linear_46_cast_fp16)[name = tensor<string, []>("softplus_47_cast_fp16")];
            tensor<fp16, [1, 12]> tanh_47_cast_fp16 = tanh(x = softplus_47_cast_fp16)[name = tensor<string, []>("tanh_47_cast_fp16")];
            tensor<fp16, [1, 12]> input_287_cast_fp16 = mul(x = linear_46_cast_fp16, y = tanh_47_cast_fp16)[name = tensor<string, []>("input_287_cast_fp16")];
            tensor<fp16, [1, 192]> linear_47_cast_fp16 = linear(bias = brain_encoder_net_12_ca_shared_mlp_2_bias_to_fp16, weight = brain_encoder_net_12_ca_shared_mlp_2_weight_to_fp16, x = input_287_cast_fp16)[name = tensor<string, []>("linear_47_cast_fp16")];
            tensor<fp16, [1, 192]> var_756_cast_fp16 = add(x = linear_45_cast_fp16, y = linear_47_cast_fp16)[name = tensor<string, []>("op_756_cast_fp16")];
            tensor<fp16, [1, 192]> weight_121_cast_fp16 = sigmoid(x = var_756_cast_fp16)[name = tensor<string, []>("weight_121_cast_fp16")];
            tensor<int32, [1]> var_758_axes_0 = const()[name = tensor<string, []>("op_758_axes_0"), val = tensor<int32, [1]>([-1])];
            tensor<fp16, [1, 192, 1]> var_758_cast_fp16 = expand_dims(axes = var_758_axes_0, x = weight_121_cast_fp16)[name = tensor<string, []>("op_758_cast_fp16")];
            tensor<fp16, [1, 192, 34]> out_23_cast_fp16 = mul(x = var_758_cast_fp16, y = x_23_cast_fp16)[name = tensor<string, []>("out_23_cast_fp16")];
            tensor<fp16, [1, 192, 34]> input_289_cast_fp16 = add(x = out_23_cast_fp16, y = input_265_cast_fp16)[name = tensor<string, []>("input_289_cast_fp16")];
            tensor<fp16, [192]> brain_encoder_net_13_res_unit_0_running_mean_to_fp16 = const()[name = tensor<string, []>("brain_encoder_net_13_res_unit_0_running_mean_to_fp16"), val = tensor<fp16, [192]>(BLOBFILE(path = tensor<string, []>("@model_path/weights/weight.bin"), offset = tensor<uint64, []>(6621824)))];
            tensor<fp16, [192]> brain_encoder_net_13_res_unit_0_running_var_to_fp16 = const()[name = tensor<string, []>("brain_encoder_net_13_res_unit_0_running_var_to_fp16"), val = tensor<fp16, [192]>(BLOBFILE(path = tensor<string, []>("@model_path/weights/weight.bin"), offset = tensor<uint64, []>(6622272)))];
            tensor<fp16, [192]> brain_encoder_net_13_res_unit_0_weight_to_fp16 = const()[name = tensor<string, []>("brain_encoder_net_13_res_unit_0_weight_to_fp16"), val = tensor<fp16, [192]>(BLOBFILE(path = tensor<string, []>("@model_path/weights/weight.bin"), offset = tensor<uint64, []>(6622720)))];
            tensor<fp16, [192]> brain_encoder_net_13_res_unit_0_bias_to_fp16 = const()[name = tensor<string, []>("brain_encoder_net_13_res_unit_0_bias_to_fp16"), val = tensor<fp16, [192]>(BLOBFILE(path = tensor<string, []>("@model_path/weights/weight.bin"), offset = tensor<uint64, []>(6623168)))];
            tensor<fp16, [1, 192, 34]> input_291_cast_fp16 = batch_norm(beta = brain_encoder_net_13_res_unit_0_bias_to_fp16, epsilon = var_6_to_fp16, gamma = brain_encoder_net_13_res_unit_0_weight_to_fp16, mean = brain_encoder_net_13_res_unit_0_running_mean_to_fp16, variance = brain_encoder_net_13_res_unit_0_running_var_to_fp16, x = input_289_cast_fp16)[name = tensor<string, []>("input_291_cast_fp16")];
            tensor<fp16, [1, 192, 34]> softplus_48_cast_fp16 = softplus(x = input_291_cast_fp16)[name = tensor<string, []>("softplus_48_cast_fp16")];
            tensor<fp16, [1, 192, 34]> tanh_48_cast_fp16 = tanh(x = softplus_48_cast_fp16)[name = tensor<string, []>("tanh_48_cast_fp16")];
            tensor<fp16, [1, 192, 34]> input_293_cast_fp16 = mul(x = input_291_cast_fp16, y = tanh_48_cast_fp16)[name = tensor<string, []>("input_293_cast_fp16")];
            tensor<string, []> input_295_pad_type_0 = const()[name = tensor<string, []>("input_295_pad_type_0"), val = tensor<string, []>("custom")];
            tensor<int32, [2]> input_295_pad_0 = const()[name = tensor<string, []>("input_295_pad_0"), val = tensor<int32, [2]>([1, 1])];
            tensor<int32, [1]> input_295_strides_0 = const()[name = tensor<string, []>("input_295_strides_0"), val = tensor<int32, [1]>([1])];
            tensor<int32, [1]> input_295_dilations_0 = const()[name = tensor<string, []>("input_295_dilations_0"), val = tensor<int32, [1]>([1])];
            tensor<int32, []> input_295_groups_0 = const()[name = tensor<string, []>("input_295_groups_0"), val = tensor<int32, []>(1)];
            tensor<fp16, [192, 192, 3]> const_24_to_fp16 = const()[name = tensor<string, []>("const_24_to_fp16"), val = tensor<fp16, [192, 192, 3]>(BLOBFILE(path = tensor<string, []>("@model_path/weights/weight.bin"), offset = tensor<uint64, []>(6623616)))];
            tensor<fp16, [192]> const_25_to_fp16 = const()[name = tensor<string, []>("const_25_to_fp16"), val = tensor<fp16, [192]>(BLOBFILE(path = tensor<string, []>("@model_path/weights/weight.bin"), offset = tensor<uint64, []>(6844864)))];
            tensor<fp16, [1, 192, 34]> input_297_cast_fp16 = conv(bias = const_25_to_fp16, dilations = input_295_dilations_0, groups = input_295_groups_0, pad = input_295_pad_0, pad_type = input_295_pad_type_0, strides = input_295_strides_0, weight = const_24_to_fp16, x = input_293_cast_fp16)[name = tensor<string, []>("input_297_cast_fp16")];
            tensor<fp16, [1, 192, 34]> softplus_49_cast_fp16 = softplus(x = input_297_cast_fp16)[name = tensor<string, []>("softplus_49_cast_fp16")];
            tensor<fp16, [1, 192, 34]> tanh_49_cast_fp16 = tanh(x = softplus_49_cast_fp16)[name = tensor<string, []>("tanh_49_cast_fp16")];
            tensor<fp16, [1, 192, 34]> input_299_cast_fp16 = mul(x = input_297_cast_fp16, y = tanh_49_cast_fp16)[name = tensor<string, []>("input_299_cast_fp16")];
            tensor<string, []> x_25_pad_type_0 = const()[name = tensor<string, []>("x_25_pad_type_0"), val = tensor<string, []>("custom")];
            tensor<int32, [2]> x_25_pad_0 = const()[name = tensor<string, []>("x_25_pad_0"), val = tensor<int32, [2]>([1, 1])];
            tensor<int32, [1]> x_25_strides_0 = const()[name = tensor<string, []>("x_25_strides_0"), val = tensor<int32, [1]>([1])];
            tensor<int32, [1]> x_25_dilations_0 = const()[name = tensor<string, []>("x_25_dilations_0"), val = tensor<int32, [1]>([1])];
            tensor<int32, []> x_25_groups_0 = const()[name = tensor<string, []>("x_25_groups_0"), val = tensor<int32, []>(1)];
            tensor<fp16, [192, 192, 3]> brain_encoder_net_13_res_unit_5_weight_to_fp16 = const()[name = tensor<string, []>("brain_encoder_net_13_res_unit_5_weight_to_fp16"), val = tensor<fp16, [192, 192, 3]>(BLOBFILE(path = tensor<string, []>("@model_path/weights/weight.bin"), offset = tensor<uint64, []>(6845312)))];
            tensor<fp16, [1, 192, 34]> x_25_cast_fp16 = conv(dilations = x_25_dilations_0, groups = x_25_groups_0, pad = x_25_pad_0, pad_type = x_25_pad_type_0, strides = x_25_strides_0, weight = brain_encoder_net_13_res_unit_5_weight_to_fp16, x = input_299_cast_fp16)[name = tensor<string, []>("x_25_cast_fp16")];
            tensor<int32, [1]> input_301_axes_0 = const()[name = tensor<string, []>("input_301_axes_0"), val = tensor<int32, [1]>([-1])];
            tensor<bool, []> input_301_keep_dims_0 = const()[name = tensor<string, []>("input_301_keep_dims_0"), val = tensor<bool, []>(false)];
            tensor<fp16, [1, 192]> input_301_cast_fp16 = reduce_mean(axes = input_301_axes_0, keep_dims = input_301_keep_dims_0, x = x_25_cast_fp16)[name = tensor<string, []>("input_301_cast_fp16")];
            tensor<fp16, [12, 192]> brain_encoder_net_13_ca_shared_mlp_0_weight_to_fp16 = const()[name = tensor<string, []>("brain_encoder_net_13_ca_shared_mlp_0_weight_to_fp16"), val = tensor<fp16, [12, 192]>(BLOBFILE(path = tensor<string, []>("@model_path/weights/weight.bin"), offset = tensor<uint64, []>(7066560)))];
            tensor<fp16, [12]> brain_encoder_net_13_ca_shared_mlp_0_bias_to_fp16 = const()[name = tensor<string, []>("brain_encoder_net_13_ca_shared_mlp_0_bias_to_fp16"), val = tensor<fp16, [12]>(BLOBFILE(path = tensor<string, []>("@model_path/weights/weight.bin"), offset = tensor<uint64, []>(7071232)))];
            tensor<fp16, [1, 12]> linear_48_cast_fp16 = linear(bias = brain_encoder_net_13_ca_shared_mlp_0_bias_to_fp16, weight = brain_encoder_net_13_ca_shared_mlp_0_weight_to_fp16, x = input_301_cast_fp16)[name = tensor<string, []>("linear_48_cast_fp16")];
            tensor<fp16, [1, 12]> softplus_50_cast_fp16 = softplus(x = linear_48_cast_fp16)[name = tensor<string, []>("softplus_50_cast_fp16")];
            tensor<fp16, [1, 12]> tanh_50_cast_fp16 = tanh(x = softplus_50_cast_fp16)[name = tensor<string, []>("tanh_50_cast_fp16")];
            tensor<fp16, [1, 12]> input_305_cast_fp16 = mul(x = linear_48_cast_fp16, y = tanh_50_cast_fp16)[name = tensor<string, []>("input_305_cast_fp16")];
            tensor<fp16, [192, 12]> brain_encoder_net_13_ca_shared_mlp_2_weight_to_fp16 = const()[name = tensor<string, []>("brain_encoder_net_13_ca_shared_mlp_2_weight_to_fp16"), val = tensor<fp16, [192, 12]>(BLOBFILE(path = tensor<string, []>("@model_path/weights/weight.bin"), offset = tensor<uint64, []>(7071360)))];
            tensor<fp16, [192]> brain_encoder_net_13_ca_shared_mlp_2_bias_to_fp16 = const()[name = tensor<string, []>("brain_encoder_net_13_ca_shared_mlp_2_bias_to_fp16"), val = tensor<fp16, [192]>(BLOBFILE(path = tensor<string, []>("@model_path/weights/weight.bin"), offset = tensor<uint64, []>(7076032)))];
            tensor<fp16, [1, 192]> linear_49_cast_fp16 = linear(bias = brain_encoder_net_13_ca_shared_mlp_2_bias_to_fp16, weight = brain_encoder_net_13_ca_shared_mlp_2_weight_to_fp16, x = input_305_cast_fp16)[name = tensor<string, []>("linear_49_cast_fp16")];
            tensor<int32, [1]> input_307_axes_0 = const()[name = tensor<string, []>("input_307_axes_0"), val = tensor<int32, [1]>([-1])];
            tensor<fp16, [1, 192]> input_307_cast_fp16 = reduce_max(axes = input_307_axes_0, keep_dims = var_10, x = x_25_cast_fp16)[name = tensor<string, []>("input_307_cast_fp16")];
            tensor<fp16, [1, 12]> linear_50_cast_fp16 = linear(bias = brain_encoder_net_13_ca_shared_mlp_0_bias_to_fp16, weight = brain_encoder_net_13_ca_shared_mlp_0_weight_to_fp16, x = input_307_cast_fp16)[name = tensor<string, []>("linear_50_cast_fp16")];
            tensor<fp16, [1, 12]> softplus_51_cast_fp16 = softplus(x = linear_50_cast_fp16)[name = tensor<string, []>("softplus_51_cast_fp16")];
            tensor<fp16, [1, 12]> tanh_51_cast_fp16 = tanh(x = softplus_51_cast_fp16)[name = tensor<string, []>("tanh_51_cast_fp16")];
            tensor<fp16, [1, 12]> input_311_cast_fp16 = mul(x = linear_50_cast_fp16, y = tanh_51_cast_fp16)[name = tensor<string, []>("input_311_cast_fp16")];
            tensor<fp16, [1, 192]> linear_51_cast_fp16 = linear(bias = brain_encoder_net_13_ca_shared_mlp_2_bias_to_fp16, weight = brain_encoder_net_13_ca_shared_mlp_2_weight_to_fp16, x = input_311_cast_fp16)[name = tensor<string, []>("linear_51_cast_fp16")];
            tensor<fp16, [1, 192]> var_814_cast_fp16 = add(x = linear_49_cast_fp16, y = linear_51_cast_fp16)[name = tensor<string, []>("op_814_cast_fp16")];
            tensor<fp16, [1, 192]> weight_131_cast_fp16 = sigmoid(x = var_814_cast_fp16)[name = tensor<string, []>("weight_131_cast_fp16")];
            tensor<int32, [1]> var_816_axes_0 = const()[name = tensor<string, []>("op_816_axes_0"), val = tensor<int32, [1]>([-1])];
            tensor<fp16, [1, 192, 1]> var_816_cast_fp16 = expand_dims(axes = var_816_axes_0, x = weight_131_cast_fp16)[name = tensor<string, []>("op_816_cast_fp16")];
            tensor<fp16, [1, 192, 34]> out_25_cast_fp16 = mul(x = var_816_cast_fp16, y = x_25_cast_fp16)[name = tensor<string, []>("out_25_cast_fp16")];
            tensor<fp16, [1, 192, 34]> input_313_cast_fp16 = add(x = out_25_cast_fp16, y = input_289_cast_fp16)[name = tensor<string, []>("input_313_cast_fp16")];
            tensor<fp16, [192]> brain_encoder_net_14_res_unit_0_running_mean_to_fp16 = const()[name = tensor<string, []>("brain_encoder_net_14_res_unit_0_running_mean_to_fp16"), val = tensor<fp16, [192]>(BLOBFILE(path = tensor<string, []>("@model_path/weights/weight.bin"), offset = tensor<uint64, []>(7076480)))];
            tensor<fp16, [192]> brain_encoder_net_14_res_unit_0_running_var_to_fp16 = const()[name = tensor<string, []>("brain_encoder_net_14_res_unit_0_running_var_to_fp16"), val = tensor<fp16, [192]>(BLOBFILE(path = tensor<string, []>("@model_path/weights/weight.bin"), offset = tensor<uint64, []>(7076928)))];
            tensor<fp16, [192]> brain_encoder_net_14_res_unit_0_weight_to_fp16 = const()[name = tensor<string, []>("brain_encoder_net_14_res_unit_0_weight_to_fp16"), val = tensor<fp16, [192]>(BLOBFILE(path = tensor<string, []>("@model_path/weights/weight.bin"), offset = tensor<uint64, []>(7077376)))];
            tensor<fp16, [192]> brain_encoder_net_14_res_unit_0_bias_to_fp16 = const()[name = tensor<string, []>("brain_encoder_net_14_res_unit_0_bias_to_fp16"), val = tensor<fp16, [192]>(BLOBFILE(path = tensor<string, []>("@model_path/weights/weight.bin"), offset = tensor<uint64, []>(7077824)))];
            tensor<fp16, [1, 192, 34]> input_315_cast_fp16 = batch_norm(beta = brain_encoder_net_14_res_unit_0_bias_to_fp16, epsilon = var_6_to_fp16, gamma = brain_encoder_net_14_res_unit_0_weight_to_fp16, mean = brain_encoder_net_14_res_unit_0_running_mean_to_fp16, variance = brain_encoder_net_14_res_unit_0_running_var_to_fp16, x = input_313_cast_fp16)[name = tensor<string, []>("input_315_cast_fp16")];
            tensor<fp16, [1, 192, 34]> softplus_52_cast_fp16 = softplus(x = input_315_cast_fp16)[name = tensor<string, []>("softplus_52_cast_fp16")];
            tensor<fp16, [1, 192, 34]> tanh_52_cast_fp16 = tanh(x = softplus_52_cast_fp16)[name = tensor<string, []>("tanh_52_cast_fp16")];
            tensor<fp16, [1, 192, 34]> input_317_cast_fp16 = mul(x = input_315_cast_fp16, y = tanh_52_cast_fp16)[name = tensor<string, []>("input_317_cast_fp16")];
            tensor<string, []> input_319_pad_type_0 = const()[name = tensor<string, []>("input_319_pad_type_0"), val = tensor<string, []>("custom")];
            tensor<int32, [2]> input_319_pad_0 = const()[name = tensor<string, []>("input_319_pad_0"), val = tensor<int32, [2]>([1, 1])];
            tensor<int32, [1]> input_319_strides_0 = const()[name = tensor<string, []>("input_319_strides_0"), val = tensor<int32, [1]>([1])];
            tensor<int32, [1]> input_319_dilations_0 = const()[name = tensor<string, []>("input_319_dilations_0"), val = tensor<int32, [1]>([1])];
            tensor<int32, []> input_319_groups_0 = const()[name = tensor<string, []>("input_319_groups_0"), val = tensor<int32, []>(1)];
            tensor<fp16, [192, 192, 3]> const_26_to_fp16 = const()[name = tensor<string, []>("const_26_to_fp16"), val = tensor<fp16, [192, 192, 3]>(BLOBFILE(path = tensor<string, []>("@model_path/weights/weight.bin"), offset = tensor<uint64, []>(7078272)))];
            tensor<fp16, [192]> const_27_to_fp16 = const()[name = tensor<string, []>("const_27_to_fp16"), val = tensor<fp16, [192]>(BLOBFILE(path = tensor<string, []>("@model_path/weights/weight.bin"), offset = tensor<uint64, []>(7299520)))];
            tensor<fp16, [1, 192, 34]> input_321_cast_fp16 = conv(bias = const_27_to_fp16, dilations = input_319_dilations_0, groups = input_319_groups_0, pad = input_319_pad_0, pad_type = input_319_pad_type_0, strides = input_319_strides_0, weight = const_26_to_fp16, x = input_317_cast_fp16)[name = tensor<string, []>("input_321_cast_fp16")];
            tensor<fp16, [1, 192, 34]> softplus_53_cast_fp16 = softplus(x = input_321_cast_fp16)[name = tensor<string, []>("softplus_53_cast_fp16")];
            tensor<fp16, [1, 192, 34]> tanh_53_cast_fp16 = tanh(x = softplus_53_cast_fp16)[name = tensor<string, []>("tanh_53_cast_fp16")];
            tensor<fp16, [1, 192, 34]> input_323_cast_fp16 = mul(x = input_321_cast_fp16, y = tanh_53_cast_fp16)[name = tensor<string, []>("input_323_cast_fp16")];
            tensor<string, []> x_27_pad_type_0 = const()[name = tensor<string, []>("x_27_pad_type_0"), val = tensor<string, []>("custom")];
            tensor<int32, [2]> x_27_pad_0 = const()[name = tensor<string, []>("x_27_pad_0"), val = tensor<int32, [2]>([1, 1])];
            tensor<int32, [1]> x_27_strides_0 = const()[name = tensor<string, []>("x_27_strides_0"), val = tensor<int32, [1]>([1])];
            tensor<int32, [1]> x_27_dilations_0 = const()[name = tensor<string, []>("x_27_dilations_0"), val = tensor<int32, [1]>([1])];
            tensor<int32, []> x_27_groups_0 = const()[name = tensor<string, []>("x_27_groups_0"), val = tensor<int32, []>(1)];
            tensor<fp16, [192, 192, 3]> brain_encoder_net_14_res_unit_5_weight_to_fp16 = const()[name = tensor<string, []>("brain_encoder_net_14_res_unit_5_weight_to_fp16"), val = tensor<fp16, [192, 192, 3]>(BLOBFILE(path = tensor<string, []>("@model_path/weights/weight.bin"), offset = tensor<uint64, []>(7299968)))];
            tensor<fp16, [1, 192, 34]> x_27_cast_fp16 = conv(dilations = x_27_dilations_0, groups = x_27_groups_0, pad = x_27_pad_0, pad_type = x_27_pad_type_0, strides = x_27_strides_0, weight = brain_encoder_net_14_res_unit_5_weight_to_fp16, x = input_323_cast_fp16)[name = tensor<string, []>("x_27_cast_fp16")];
            tensor<int32, [1]> input_325_axes_0 = const()[name = tensor<string, []>("input_325_axes_0"), val = tensor<int32, [1]>([-1])];
            tensor<bool, []> input_325_keep_dims_0 = const()[name = tensor<string, []>("input_325_keep_dims_0"), val = tensor<bool, []>(false)];
            tensor<fp16, [1, 192]> input_325_cast_fp16 = reduce_mean(axes = input_325_axes_0, keep_dims = input_325_keep_dims_0, x = x_27_cast_fp16)[name = tensor<string, []>("input_325_cast_fp16")];
            tensor<fp16, [12, 192]> brain_encoder_net_14_ca_shared_mlp_0_weight_to_fp16 = const()[name = tensor<string, []>("brain_encoder_net_14_ca_shared_mlp_0_weight_to_fp16"), val = tensor<fp16, [12, 192]>(BLOBFILE(path = tensor<string, []>("@model_path/weights/weight.bin"), offset = tensor<uint64, []>(7521216)))];
            tensor<fp16, [12]> brain_encoder_net_14_ca_shared_mlp_0_bias_to_fp16 = const()[name = tensor<string, []>("brain_encoder_net_14_ca_shared_mlp_0_bias_to_fp16"), val = tensor<fp16, [12]>(BLOBFILE(path = tensor<string, []>("@model_path/weights/weight.bin"), offset = tensor<uint64, []>(7525888)))];
            tensor<fp16, [1, 12]> linear_52_cast_fp16 = linear(bias = brain_encoder_net_14_ca_shared_mlp_0_bias_to_fp16, weight = brain_encoder_net_14_ca_shared_mlp_0_weight_to_fp16, x = input_325_cast_fp16)[name = tensor<string, []>("linear_52_cast_fp16")];
            tensor<fp16, [1, 12]> softplus_54_cast_fp16 = softplus(x = linear_52_cast_fp16)[name = tensor<string, []>("softplus_54_cast_fp16")];
            tensor<fp16, [1, 12]> tanh_54_cast_fp16 = tanh(x = softplus_54_cast_fp16)[name = tensor<string, []>("tanh_54_cast_fp16")];
            tensor<fp16, [1, 12]> input_329_cast_fp16 = mul(x = linear_52_cast_fp16, y = tanh_54_cast_fp16)[name = tensor<string, []>("input_329_cast_fp16")];
            tensor<fp16, [192, 12]> brain_encoder_net_14_ca_shared_mlp_2_weight_to_fp16 = const()[name = tensor<string, []>("brain_encoder_net_14_ca_shared_mlp_2_weight_to_fp16"), val = tensor<fp16, [192, 12]>(BLOBFILE(path = tensor<string, []>("@model_path/weights/weight.bin"), offset = tensor<uint64, []>(7526016)))];
            tensor<fp16, [192]> brain_encoder_net_14_ca_shared_mlp_2_bias_to_fp16 = const()[name = tensor<string, []>("brain_encoder_net_14_ca_shared_mlp_2_bias_to_fp16"), val = tensor<fp16, [192]>(BLOBFILE(path = tensor<string, []>("@model_path/weights/weight.bin"), offset = tensor<uint64, []>(7530688)))];
            tensor<fp16, [1, 192]> linear_53_cast_fp16 = linear(bias = brain_encoder_net_14_ca_shared_mlp_2_bias_to_fp16, weight = brain_encoder_net_14_ca_shared_mlp_2_weight_to_fp16, x = input_329_cast_fp16)[name = tensor<string, []>("linear_53_cast_fp16")];
            tensor<int32, [1]> input_331_axes_0 = const()[name = tensor<string, []>("input_331_axes_0"), val = tensor<int32, [1]>([-1])];
            tensor<fp16, [1, 192]> input_331_cast_fp16 = reduce_max(axes = input_331_axes_0, keep_dims = var_10, x = x_27_cast_fp16)[name = tensor<string, []>("input_331_cast_fp16")];
            tensor<fp16, [1, 12]> linear_54_cast_fp16 = linear(bias = brain_encoder_net_14_ca_shared_mlp_0_bias_to_fp16, weight = brain_encoder_net_14_ca_shared_mlp_0_weight_to_fp16, x = input_331_cast_fp16)[name = tensor<string, []>("linear_54_cast_fp16")];
            tensor<fp16, [1, 12]> softplus_55_cast_fp16 = softplus(x = linear_54_cast_fp16)[name = tensor<string, []>("softplus_55_cast_fp16")];
            tensor<fp16, [1, 12]> tanh_55_cast_fp16 = tanh(x = softplus_55_cast_fp16)[name = tensor<string, []>("tanh_55_cast_fp16")];
            tensor<fp16, [1, 12]> input_335_cast_fp16 = mul(x = linear_54_cast_fp16, y = tanh_55_cast_fp16)[name = tensor<string, []>("input_335_cast_fp16")];
            tensor<fp16, [1, 192]> linear_55_cast_fp16 = linear(bias = brain_encoder_net_14_ca_shared_mlp_2_bias_to_fp16, weight = brain_encoder_net_14_ca_shared_mlp_2_weight_to_fp16, x = input_335_cast_fp16)[name = tensor<string, []>("linear_55_cast_fp16")];
            tensor<fp16, [1, 192]> var_872_cast_fp16 = add(x = linear_53_cast_fp16, y = linear_55_cast_fp16)[name = tensor<string, []>("op_872_cast_fp16")];
            tensor<fp16, [1, 192]> weight_141_cast_fp16 = sigmoid(x = var_872_cast_fp16)[name = tensor<string, []>("weight_141_cast_fp16")];
            tensor<int32, [1]> var_874_axes_0 = const()[name = tensor<string, []>("op_874_axes_0"), val = tensor<int32, [1]>([-1])];
            tensor<fp16, [1, 192, 1]> var_874_cast_fp16 = expand_dims(axes = var_874_axes_0, x = weight_141_cast_fp16)[name = tensor<string, []>("op_874_cast_fp16")];
            tensor<fp16, [1, 192, 34]> out_27_cast_fp16 = mul(x = var_874_cast_fp16, y = x_27_cast_fp16)[name = tensor<string, []>("out_27_cast_fp16")];
            tensor<fp16, [1, 192, 34]> input_337_cast_fp16 = add(x = out_27_cast_fp16, y = input_313_cast_fp16)[name = tensor<string, []>("input_337_cast_fp16")];
            tensor<fp16, [192]> brain_encoder_net_15_res_unit_0_running_mean_to_fp16 = const()[name = tensor<string, []>("brain_encoder_net_15_res_unit_0_running_mean_to_fp16"), val = tensor<fp16, [192]>(BLOBFILE(path = tensor<string, []>("@model_path/weights/weight.bin"), offset = tensor<uint64, []>(7531136)))];
            tensor<fp16, [192]> brain_encoder_net_15_res_unit_0_running_var_to_fp16 = const()[name = tensor<string, []>("brain_encoder_net_15_res_unit_0_running_var_to_fp16"), val = tensor<fp16, [192]>(BLOBFILE(path = tensor<string, []>("@model_path/weights/weight.bin"), offset = tensor<uint64, []>(7531584)))];
            tensor<fp16, [192]> brain_encoder_net_15_res_unit_0_weight_to_fp16 = const()[name = tensor<string, []>("brain_encoder_net_15_res_unit_0_weight_to_fp16"), val = tensor<fp16, [192]>(BLOBFILE(path = tensor<string, []>("@model_path/weights/weight.bin"), offset = tensor<uint64, []>(7532032)))];
            tensor<fp16, [192]> brain_encoder_net_15_res_unit_0_bias_to_fp16 = const()[name = tensor<string, []>("brain_encoder_net_15_res_unit_0_bias_to_fp16"), val = tensor<fp16, [192]>(BLOBFILE(path = tensor<string, []>("@model_path/weights/weight.bin"), offset = tensor<uint64, []>(7532480)))];
            tensor<fp16, [1, 192, 34]> input_339_cast_fp16 = batch_norm(beta = brain_encoder_net_15_res_unit_0_bias_to_fp16, epsilon = var_6_to_fp16, gamma = brain_encoder_net_15_res_unit_0_weight_to_fp16, mean = brain_encoder_net_15_res_unit_0_running_mean_to_fp16, variance = brain_encoder_net_15_res_unit_0_running_var_to_fp16, x = input_337_cast_fp16)[name = tensor<string, []>("input_339_cast_fp16")];
            tensor<fp16, [1, 192, 34]> softplus_56_cast_fp16 = softplus(x = input_339_cast_fp16)[name = tensor<string, []>("softplus_56_cast_fp16")];
            tensor<fp16, [1, 192, 34]> tanh_56_cast_fp16 = tanh(x = softplus_56_cast_fp16)[name = tensor<string, []>("tanh_56_cast_fp16")];
            tensor<fp16, [1, 192, 34]> input_341_cast_fp16 = mul(x = input_339_cast_fp16, y = tanh_56_cast_fp16)[name = tensor<string, []>("input_341_cast_fp16")];
            tensor<string, []> input_343_pad_type_0 = const()[name = tensor<string, []>("input_343_pad_type_0"), val = tensor<string, []>("custom")];
            tensor<int32, [2]> input_343_pad_0 = const()[name = tensor<string, []>("input_343_pad_0"), val = tensor<int32, [2]>([1, 1])];
            tensor<int32, [1]> input_343_strides_0 = const()[name = tensor<string, []>("input_343_strides_0"), val = tensor<int32, [1]>([1])];
            tensor<int32, [1]> input_343_dilations_0 = const()[name = tensor<string, []>("input_343_dilations_0"), val = tensor<int32, [1]>([1])];
            tensor<int32, []> input_343_groups_0 = const()[name = tensor<string, []>("input_343_groups_0"), val = tensor<int32, []>(1)];
            tensor<fp16, [192, 192, 3]> const_28_to_fp16 = const()[name = tensor<string, []>("const_28_to_fp16"), val = tensor<fp16, [192, 192, 3]>(BLOBFILE(path = tensor<string, []>("@model_path/weights/weight.bin"), offset = tensor<uint64, []>(7532928)))];
            tensor<fp16, [192]> const_29_to_fp16 = const()[name = tensor<string, []>("const_29_to_fp16"), val = tensor<fp16, [192]>(BLOBFILE(path = tensor<string, []>("@model_path/weights/weight.bin"), offset = tensor<uint64, []>(7754176)))];
            tensor<fp16, [1, 192, 34]> input_345_cast_fp16 = conv(bias = const_29_to_fp16, dilations = input_343_dilations_0, groups = input_343_groups_0, pad = input_343_pad_0, pad_type = input_343_pad_type_0, strides = input_343_strides_0, weight = const_28_to_fp16, x = input_341_cast_fp16)[name = tensor<string, []>("input_345_cast_fp16")];
            tensor<fp16, [1, 192, 34]> softplus_57_cast_fp16 = softplus(x = input_345_cast_fp16)[name = tensor<string, []>("softplus_57_cast_fp16")];
            tensor<fp16, [1, 192, 34]> tanh_57_cast_fp16 = tanh(x = softplus_57_cast_fp16)[name = tensor<string, []>("tanh_57_cast_fp16")];
            tensor<fp16, [1, 192, 34]> input_347_cast_fp16 = mul(x = input_345_cast_fp16, y = tanh_57_cast_fp16)[name = tensor<string, []>("input_347_cast_fp16")];
            tensor<string, []> x_29_pad_type_0 = const()[name = tensor<string, []>("x_29_pad_type_0"), val = tensor<string, []>("custom")];
            tensor<int32, [2]> x_29_pad_0 = const()[name = tensor<string, []>("x_29_pad_0"), val = tensor<int32, [2]>([1, 1])];
…
            tensor<fp16, [1, 192, 34]> softplus_144_cast_fp16 = softplus(x = input_867_cast_fp16)[name = tensor<string, []>("softplus_144_cast_fp16")];
            tensor<fp16, [1, 192, 34]> tanh_144_cast_fp16 = tanh(x = softplus_144_cast_fp16)[name = tensor<string, []>("tanh_144_cast_fp16")];
            tensor<fp16, [1, 192, 34]> input_869_cast_fp16 = mul(x = input_867_cast_fp16, y = tanh_144_cast_fp16)[name = tensor<string, []>("input_869_cast_fp16")];
            tensor<string, []> input_871_pad_type_0 = const()[name = tensor<string, []>("input_871_pad_type_0"), val = tensor<string, []>("custom")];
            tensor<int32, [2]> input_871_pad_0 = const()[name = tensor<string, []>("input_871_pad_0"), val = tensor<int32, [2]>([1, 1])];
            tensor<int32, [1]> input_871_strides_0 = const()[name = tensor<string, []>("input_871_strides_0"), val = tensor<int32, [1]>([1])];
            tensor<int32, [1]> input_871_dilations_0 = const()[name = tensor<string, []>("input_871_dilations_0"), val = tensor<int32, [1]>([1])];
            tensor<int32, []> input_871_groups_0 = const()[name = tensor<string, []>("input_871_groups_0"), val = tensor<int32, []>(1)];
            tensor<fp16, [192, 192, 3]> const_72_to_fp16 = const()[name = tensor<string, []>("const_72_to_fp16"), val = tensor<fp16, [192, 192, 3]>(BLOBFILE(path = tensor<string, []>("@model_path/weights/weight.bin"), offset = tensor<uint64, []>(17535360)))];
            tensor<fp16, [192]> const_73_to_fp16 = const()[name = tensor<string, []>("const_73_to_fp16"), val = tensor<fp16, [192]>(BLOBFILE(path = tensor<string, []>("@model_path/weights/weight.bin"), offset = tensor<uint64, []>(17756608)))];
            tensor<fp16, [1, 192, 34]> input_873_cast_fp16 = conv(bias = const_73_to_fp16, dilations = input_871_dilations_0, groups = input_871_groups_0, pad = input_871_pad_0, pad_type = input_871_pad_type_0, strides = input_871_strides_0, weight = const_72_to_fp16, x = input_869_cast_fp16)[name = tensor<string, []>("input_873_cast_fp16")];
            tensor<fp16, [1, 192, 34]> softplus_145_cast_fp16 = softplus(x = input_873_cast_fp16)[name = tensor<string, []>("softplus_145_cast_fp16")];
            tensor<fp16, [1, 192, 34]> tanh_145_cast_fp16 = tanh(x = softplus_145_cast_fp16)[name = tensor<string, []>("tanh_145_cast_fp16")];
            tensor<fp16, [1, 192, 34]> input_875_cast_fp16 = mul(x = input_873_cast_fp16, y = tanh_145_cast_fp16)[name = tensor<string, []>("input_875_cast_fp16")];
            tensor<string, []> x_73_pad_type_0 = const()[name = tensor<string, []>("x_73_pad_type_0"), val = tensor<string, []>("custom")];
            tensor<int32, [2]> x_73_pad_0 = const()[name = tensor<string, []>("x_73_pad_0"), val = tensor<int32, [2]>([1, 1])];
            tensor<int32, [1]> x_73_strides_0 = const()[name = tensor<string, []>("x_73_strides_0"), val = tensor<int32, [1]>([1])];
            tensor<int32, [1]> x_73_dilations_0 = const()[name = tensor<string, []>("x_73_dilations_0"), val = tensor<int32, [1]>([1])];
            tensor<int32, []> x_73_groups_0 = const()[name = tensor<string, []>("x_73_groups_0"), val = tensor<int32, []>(1)];
            tensor<fp16, [192, 192, 3]> brain_encoder_net_37_res_unit_5_weight_to_fp16 = const()[name = tensor<string, []>("brain_encoder_net_37_res_unit_5_weight_to_fp16"), val = tensor<fp16, [192, 192, 3]>(BLOBFILE(path = tensor<string, []>("@model_path/weights/weight.bin"), offset = tensor<uint64, []>(17757056)))];
            tensor<fp16, [1, 192, 34]> x_73_cast_fp16 = conv(dilations = x_73_dilations_0, groups = x_73_groups_0, pad = x_73_pad_0, pad_type = x_73_pad_type_0, strides = x_73_strides_0, weight = brain_encoder_net_37_res_unit_5_weight_to_fp16, x = input_875_cast_fp16)[name = tensor<string, []>("x_73_cast_fp16")];
            tensor<int32, [1]> input_877_axes_0 = const()[name = tensor<string, []>("input_877_axes_0"), val = tensor<int32, [1]>([-1])];
            tensor<bool, []> input_877_keep_dims_0 = const()[name = tensor<string, []>("input_877_keep_dims_0"), val = tensor<bool, []>(false)];
            tensor<fp16, [1, 192]> input_877_cast_fp16 = reduce_mean(axes = input_877_axes_0, keep_dims = input_877_keep_dims_0, x = x_73_cast_fp16)[name = tensor<string, []>("input_877_cast_fp16")];
            tensor<fp16, [12, 192]> brain_encoder_net_37_ca_shared_mlp_0_weight_to_fp16 = const()[name = tensor<string, []>("brain_encoder_net_37_ca_shared_mlp_0_weight_to_fp16"), val = tensor<fp16, [12, 192]>(BLOBFILE(path = tensor<string, []>("@model_path/weights/weight.bin"), offset = tensor<uint64, []>(17978304)))];
            tensor<fp16, [12]> brain_encoder_net_37_ca_shared_mlp_0_bias_to_fp16 = const()[name = tensor<string, []>("brain_encoder_net_37_ca_shared_mlp_0_bias_to_fp16"), val = tensor<fp16, [12]>(BLOBFILE(path = tensor<string, []>("@model_path/weights/weight.bin"), offset = tensor<uint64, []>(17982976)))];
            tensor<fp16, [1, 12]> linear_144_cast_fp16 = linear(bias = brain_encoder_net_37_ca_shared_mlp_0_bias_to_fp16, weight = brain_encoder_net_37_ca_shared_mlp_0_weight_to_fp16, x = input_877_cast_fp16)[name = tensor<string, []>("linear_144_cast_fp16")];
            tensor<fp16, [1, 12]> softplus_146_cast_fp16 = softplus(x = linear_144_cast_fp16)[name = tensor<string, []>("softplus_146_cast_fp16")];
            tensor<fp16, [1, 12]> tanh_146_cast_fp16 = tanh(x = softplus_146_cast_fp16)[name = tensor<string, []>("tanh_146_cast_fp16")];
            tensor<fp16, [1, 12]> input_881_cast_fp16 = mul(x = linear_144_cast_fp16, y = tanh_146_cast_fp16)[name = tensor<string, []>("input_881_cast_fp16")];
            tensor<fp16, [192, 12]> brain_encoder_net_37_ca_shared_mlp_2_weight_to_fp16 = const()[name = tensor<string, []>("brain_encoder_net_37_ca_shared_mlp_2_weight_to_fp16"), val = tensor<fp16, [192, 12]>(BLOBFILE(path = tensor<string, []>("@model_path/weights/weight.bin"), offset = tensor<uint64, []>(17983104)))];
            tensor<fp16, [192]> brain_encoder_net_37_ca_shared_mlp_2_bias_to_fp16 = const()[name = tensor<string, []>("brain_encoder_net_37_ca_shared_mlp_2_bias_to_fp16"), val = tensor<fp16, [192]>(BLOBFILE(path = tensor<string, []>("@model_path/weights/weight.bin"), offset = tensor<uint64, []>(17987776)))];
            tensor<fp16, [1, 192]> linear_145_cast_fp16 = linear(bias = brain_encoder_net_37_ca_shared_mlp_2_bias_to_fp16, weight = brain_encoder_net_37_ca_shared_mlp_2_weight_to_fp16, x = input_881_cast_fp16)[name = tensor<string, []>("linear_145_cast_fp16")];
            tensor<int32, [1]> input_883_axes_0 = const()[name = tensor<string, []>("input_883_axes_0"), val = tensor<int32, [1]>([-1])];
            tensor<fp16, [1, 192]> input_883_cast_fp16 = reduce_max(axes = input_883_axes_0, keep_dims = var_10, x = x_73_cast_fp16)[name = tensor<string, []>("input_883_cast_fp16")];
            tensor<fp16, [1, 12]> linear_146_cast_fp16 = linear(bias = brain_encoder_net_37_ca_shared_mlp_0_bias_to_fp16, weight = brain_encoder_net_37_ca_shared_mlp_0_weight_to_fp16, x = input_883_cast_fp16)[name = tensor<string, []>("linear_146_cast_fp16")];
            tensor<fp16, [1, 12]> softplus_147_cast_fp16 = softplus(x = linear_146_cast_fp16)[name = tensor<string, []>("softplus_147_cast_fp16")];
            tensor<fp16, [1, 12]> tanh_147_cast_fp16 = tanh(x = softplus_147_cast_fp16)[name = tensor<string, []>("tanh_147_cast_fp16")];
            tensor<fp16, [1, 12]> input_887_cast_fp16 = mul(x = linear_146_cast_fp16, y = tanh_147_cast_fp16)[name = tensor<string, []>("input_887_cast_fp16")];
            tensor<fp16, [1, 192]> linear_147_cast_fp16 = linear(bias = brain_encoder_net_37_ca_shared_mlp_2_bias_to_fp16, weight = brain_encoder_net_37_ca_shared_mlp_2_weight_to_fp16, x = input_887_cast_fp16)[name = tensor<string, []>("linear_147_cast_fp16")];
            tensor<fp16, [1, 192]> var_2206_cast_fp16 = add(x = linear_145_cast_fp16, y = linear_147_cast_fp16)[name = tensor<string, []>("op_2206_cast_fp16")];
            tensor<fp16, [1, 192]> weight_371_cast_fp16 = sigmoid(x = var_2206_cast_fp16)[name = tensor<string, []>("weight_371_cast_fp16")];
            tensor<int32, [1]> var_2208_axes_0 = const()[name = tensor<string, []>("op_2208_axes_0"), val = tensor<int32, [1]>([-1])];
            tensor<fp16, [1, 192, 1]> var_2208_cast_fp16 = expand_dims(axes = var_2208_axes_0, x = weight_371_cast_fp16)[name = tensor<string, []>("op_2208_cast_fp16")];
            tensor<fp16, [1, 192, 34]> out_73_cast_fp16 = mul(x = var_2208_cast_fp16, y = x_73_cast_fp16)[name = tensor<string, []>("out_73_cast_fp16")];
            tensor<fp16, [1, 192, 34]> input_889_cast_fp16 = add(x = out_73_cast_fp16, y = input_865_cast_fp16)[name = tensor<string, []>("input_889_cast_fp16")];
            tensor<fp16, [192]> brain_encoder_net_38_res_unit_0_running_mean_to_fp16 = const()[name = tensor<string, []>("brain_encoder_net_38_res_unit_0_running_mean_to_fp16"), val = tensor<fp16, [192]>(BLOBFILE(path = tensor<string, []>("@model_path/weights/weight.bin"), offset = tensor<uint64, []>(17988224)))];
            tensor<fp16, [192]> brain_encoder_net_38_res_unit_0_running_var_to_fp16 = const()[name = tensor<string, []>("brain_encoder_net_38_res_unit_0_running_var_to_fp16"), val = tensor<fp16, [192]>(BLOBFILE(path = tensor<string, []>("@model_path/weights/weight.bin"), offset = tensor<uint64, []>(17988672)))];
            tensor<fp16, [192]> brain_encoder_net_38_res_unit_0_weight_to_fp16 = const()[name = tensor<string, []>("brain_encoder_net_38_res_unit_0_weight_to_fp16"), val = tensor<fp16, [192]>(BLOBFILE(path = tensor<string, []>("@model_path/weights/weight.bin"), offset = tensor<uint64, []>(17989120)))];
            tensor<fp16, [192]> brain_encoder_net_38_res_unit_0_bias_to_fp16 = const()[name = tensor<string, []>("brain_encoder_net_38_res_unit_0_bias_to_fp16"), val = tensor<fp16, [192]>(BLOBFILE(path = tensor<string, []>("@model_path/weights/weight.bin"), offset = tensor<uint64, []>(17989568)))];
            tensor<fp16, [1, 192, 34]> input_891_cast_fp16 = batch_norm(beta = brain_encoder_net_38_res_unit_0_bias_to_fp16, epsilon = var_6_to_fp16, gamma = brain_encoder_net_38_res_unit_0_weight_to_fp16, mean = brain_encoder_net_38_res_unit_0_running_mean_to_fp16, variance = brain_encoder_net_38_res_unit_0_running_var_to_fp16, x = input_889_cast_fp16)[name = tensor<string, []>("input_891_cast_fp16")];
            tensor<fp16, [1, 192, 34]> softplus_148_cast_fp16 = softplus(x = input_891_cast_fp16)[name = tensor<string, []>("softplus_148_cast_fp16")];
            tensor<fp16, [1, 192, 34]> tanh_148_cast_fp16 = tanh(x = softplus_148_cast_fp16)[name = tensor<string, []>("tanh_148_cast_fp16")];
            tensor<fp16, [1, 192, 34]> input_893_cast_fp16 = mul(x = input_891_cast_fp16, y = tanh_148_cast_fp16)[name = tensor<string, []>("input_893_cast_fp16")];
            tensor<string, []> input_895_pad_type_0 = const()[name = tensor<string, []>("input_895_pad_type_0"), val = tensor<string, []>("custom")];
            tensor<int32, [2]> input_895_pad_0 = const()[name = tensor<string, []>("input_895_pad_0"), val = tensor<int32, [2]>([1, 1])];
            tensor<int32, [1]> input_895_strides_0 = const()[name = tensor<string, []>("input_895_strides_0"), val = tensor<int32, [1]>([1])];
            tensor<int32, [1]> input_895_dilations_0 = const()[name = tensor<string, []>("input_895_dilations_0"), val = tensor<int32, [1]>([1])];
            tensor<int32, []> input_895_groups_0 = const()[name = tensor<string, []>("input_895_groups_0"), val = tensor<int32, []>(1)];
            tensor<fp16, [192, 192, 3]> const_74_to_fp16 = const()[name = tensor<string, []>("const_74_to_fp16"), val = tensor<fp16, [192, 192, 3]>(BLOBFILE(path = tensor<string, []>("@model_path/weights/weight.bin"), offset = tensor<uint64, []>(17990016)))];
            tensor<fp16, [192]> const_75_to_fp16 = const()[name = tensor<string, []>("const_75_to_fp16"), val = tensor<fp16, [192]>(BLOBFILE(path = tensor<string, []>("@model_path/weights/weight.bin"), offset = tensor<uint64, []>(18211264)))];
            tensor<fp16, [1, 192, 34]> input_897_cast_fp16 = conv(bias = const_75_to_fp16, dilations = input_895_dilations_0, groups = input_895_groups_0, pad = input_895_pad_0, pad_type = input_895_pad_type_0, strides = input_895_strides_0, weight = const_74_to_fp16, x = input_893_cast_fp16)[name = tensor<string, []>("input_897_cast_fp16")];
            tensor<fp16, [1, 192, 34]> softplus_149_cast_fp16 = softplus(x = input_897_cast_fp16)[name = tensor<string, []>("softplus_149_cast_fp16")];
            tensor<fp16, [1, 192, 34]> tanh_149_cast_fp16 = tanh(x = softplus_149_cast_fp16)[name = tensor<string, []>("tanh_149_cast_fp16")];
            tensor<fp16, [1, 192, 34]> input_899_cast_fp16 = mul(x = input_897_cast_fp16, y = tanh_149_cast_fp16)[name = tensor<string, []>("input_899_cast_fp16")];
            tensor<string, []> x_75_pad_type_0 = const()[name = tensor<string, []>("x_75_pad_type_0"), val = tensor<string, []>("custom")];
            tensor<int32, [2]> x_75_pad_0 = const()[name = tensor<string, []>("x_75_pad_0"), val = tensor<int32, [2]>([1, 1])];
            tensor<int32, [1]> x_75_strides_0 = const()[name = tensor<string, []>("x_75_strides_0"), val = tensor<int32, [1]>([1])];
            tensor<int32, [1]> x_75_dilations_0 = const()[name = tensor<string, []>("x_75_dilations_0"), val = tensor<int32, [1]>([1])];
            tensor<int32, []> x_75_groups_0 = const()[name = tensor<string, []>("x_75_groups_0"), val = tensor<int32, []>(1)];
            tensor<fp16, [192, 192, 3]> brain_encoder_net_38_res_unit_5_weight_to_fp16 = const()[name = tensor<string, []>("brain_encoder_net_38_res_unit_5_weight_to_fp16"), val = tensor<fp16, [192, 192, 3]>(BLOBFILE(path = tensor<string, []>("@model_path/weights/weight.bin"), offset = tensor<uint64, []>(18211712)))];
            tensor<fp16, [1, 192, 34]> x_75_cast_fp16 = conv(dilations = x_75_dilations_0, groups = x_75_groups_0, pad = x_75_pad_0, pad_type = x_75_pad_type_0, strides = x_75_strides_0, weight = brain_encoder_net_38_res_unit_5_weight_to_fp16, x = input_899_cast_fp16)[name = tensor<string, []>("x_75_cast_fp16")];
            tensor<int32, [1]> input_901_axes_0 = const()[name = tensor<string, []>("input_901_axes_0"), val = tensor<int32, [1]>([-1])];
            tensor<bool, []> input_901_keep_dims_0 = const()[name = tensor<string, []>("input_901_keep_dims_0"), val = tensor<bool, []>(false)];
            tensor<fp16, [1, 192]> input_901_cast_fp16 = reduce_mean(axes = input_901_axes_0, keep_dims = input_901_keep_dims_0, x = x_75_cast_fp16)[name = tensor<string, []>("input_901_cast_fp16")];
            tensor<fp16, [12, 192]> brain_encoder_net_38_ca_shared_mlp_0_weight_to_fp16 = const()[name = tensor<string, []>("brain_encoder_net_38_ca_shared_mlp_0_weight_to_fp16"), val = tensor<fp16, [12, 192]>(BLOBFILE(path = tensor<string, []>("@model_path/weights/weight.bin"), offset = tensor<uint64, []>(18432960)))];
            tensor<fp16, [12]> brain_encoder_net_38_ca_shared_mlp_0_bias_to_fp16 = const()[name = tensor<string, []>("brain_encoder_net_38_ca_shared_mlp_0_bias_to_fp16"), val = tensor<fp16, [12]>(BLOBFILE(path = tensor<string, []>("@model_path/weights/weight.bin"), offset = tensor<uint64, []>(18437632)))];
            tensor<fp16, [1, 12]> linear_148_cast_fp16 = linear(bias = brain_encoder_net_38_ca_shared_mlp_0_bias_to_fp16, weight = brain_encoder_net_38_ca_shared_mlp_0_weight_to_fp16, x = input_901_cast_fp16)[name = tensor<string, []>("linear_148_cast_fp16")];
            tensor<fp16, [1, 12]> softplus_150_cast_fp16 = softplus(x = linear_148_cast_fp16)[name = tensor<string, []>("softplus_150_cast_fp16")];
            tensor<fp16, [1, 12]> tanh_150_cast_fp16 = tanh(x = softplus_150_cast_fp16)[name = tensor<string, []>("tanh_150_cast_fp16")];
            tensor<fp16, [1, 12]> input_905_cast_fp16 = mul(x = linear_148_cast_fp16, y = tanh_150_cast_fp16)[name = tensor<string, []>("input_905_cast_fp16")];
            tensor<fp16, [192, 12]> brain_encoder_net_38_ca_shared_mlp_2_weight_to_fp16 = const()[name = tensor<string, []>("brain_encoder_net_38_ca_shared_mlp_2_weight_to_fp16"), val = tensor<fp16, [192, 12]>(BLOBFILE(path = tensor<string, []>("@model_path/weights/weight.bin"), offset = tensor<uint64, []>(18437760)))];
            tensor<fp16, [192]> brain_encoder_net_38_ca_shared_mlp_2_bias_to_fp16 = const()[name = tensor<string, []>("brain_encoder_net_38_ca_shared_mlp_2_bias_to_fp16"), val = tensor<fp16, [192]>(BLOBFILE(path = tensor<string, []>("@model_path/weights/weight.bin"), offset = tensor<uint64, []>(18442432)))];
            tensor<fp16, [1, 192]> linear_149_cast_fp16 = linear(bias = brain_encoder_net_38_ca_shared_mlp_2_bias_to_fp16, weight = brain_encoder_net_38_ca_shared_mlp_2_weight_to_fp16, x = input_905_cast_fp16)[name = tensor<string, []>("linear_149_cast_fp16")];
            tensor<int32, [1]> input_907_axes_0 = const()[name = tensor<string, []>("input_907_axes_0"), val = tensor<int32, [1]>([-1])];
            tensor<fp16, [1, 192]> input_907_cast_fp16 = reduce_max(axes = input_907_axes_0, keep_dims = var_10, x = x_75_cast_fp16)[name = tensor<string, []>("input_907_cast_fp16")];
            tensor<fp16, [1, 12]> linear_150_cast_fp16 = linear(bias = brain_encoder_net_38_ca_shared_mlp_0_bias_to_fp16, weight = brain_encoder_net_38_ca_shared_mlp_0_weight_to_fp16, x = input_907_cast_fp16)[name = tensor<string, []>("linear_150_cast_fp16")];
            tensor<fp16, [1, 12]> softplus_151_cast_fp16 = softplus(x = linear_150_cast_fp16)[name = tensor<string, []>("softplus_151_cast_fp16")];
            tensor<fp16, [1, 12]> tanh_151_cast_fp16 = tanh(x = softplus_151_cast_fp16)[name = tensor<string, []>("tanh_151_cast_fp16")];
            tensor<fp16, [1, 12]> input_911_cast_fp16 = mul(x = linear_150_cast_fp16, y = tanh_151_cast_fp16)[name = tensor<string, []>("input_911_cast_fp16")];
            tensor<fp16, [1, 192]> linear_151_cast_fp16 = linear(bias = brain_encoder_net_38_ca_shared_mlp_2_bias_to_fp16, weight = brain_encoder_net_38_ca_shared_mlp_2_weight_to_fp16, x = input_911_cast_fp16)[name = tensor<string, []>("linear_151_cast_fp16")];
            tensor<fp16, [1, 192]> var_2264_cast_fp16 = add(x = linear_149_cast_fp16, y = linear_151_cast_fp16)[name = tensor<string, []>("op_2264_cast_fp16")];
            tensor<fp16, [1, 192]> weight_381_cast_fp16 = sigmoid(x = var_2264_cast_fp16)[name = tensor<string, []>("weight_381_cast_fp16")];
            tensor<int32, [1]> var_2266_axes_0 = const()[name = tensor<string, []>("op_2266_axes_0"), val = tensor<int32, [1]>([-1])];
            tensor<fp16, [1, 192, 1]> var_2266_cast_fp16 = expand_dims(axes = var_2266_axes_0, x = weight_381_cast_fp16)[name = tensor<string, []>("op_2266_cast_fp16")];
            tensor<fp16, [1, 192, 34]> out_75_cast_fp16 = mul(x = var_2266_cast_fp16, y = x_75_cast_fp16)[name = tensor<string, []>("out_75_cast_fp16")];
            tensor<fp16, [1, 192, 34]> input_913_cast_fp16 = add(x = out_75_cast_fp16, y = input_889_cast_fp16)[name = tensor<string, []>("input_913_cast_fp16")];
            tensor<fp16, [192]> brain_encoder_net_39_res_unit_0_running_mean_to_fp16 = const()[name = tensor<string, []>("brain_encoder_net_39_res_unit_0_running_mean_to_fp16"), val = tensor<fp16, [192]>(BLOBFILE(path = tensor<string, []>("@model_path/weights/weight.bin"), offset = tensor<uint64, []>(18442880)))];
            tensor<fp16, [192]> brain_encoder_net_39_res_unit_0_running_var_to_fp16 = const()[name = tensor<string, []>("brain_encoder_net_39_res_unit_0_running_var_to_fp16"), val = tensor<fp16, [192]>(BLOBFILE(path = tensor<string, []>("@model_path/weights/weight.bin"), offset = tensor<uint64, []>(18443328)))];
            tensor<fp16, [192]> brain_encoder_net_39_res_unit_0_weight_to_fp16 = const()[name = tensor<string, []>("brain_encoder_net_39_res_unit_0_weight_to_fp16"), val = tensor<fp16, [192]>(BLOBFILE(path = tensor<string, []>("@model_path/weights/weight.bin"), offset = tensor<uint64, []>(18443776)))];
            tensor<fp16, [192]> brain_encoder_net_39_res_unit_0_bias_to_fp16 = const()[name = tensor<string, []>("brain_encoder_net_39_res_unit_0_bias_to_fp16"), val = tensor<fp16, [192]>(BLOBFILE(path = tensor<string, []>("@model_path/weights/weight.bin"), offset = tensor<uint64, []>(18444224)))];
            tensor<fp16, [1, 192, 34]> input_915_cast_fp16 = batch_norm(beta = brain_encoder_net_39_res_unit_0_bias_to_fp16, epsilon = var_6_to_fp16, gamma = brain_encoder_net_39_res_unit_0_weight_to_fp16, mean = brain_encoder_net_39_res_unit_0_running_mean_to_fp16, variance = brain_encoder_net_39_res_unit_0_running_var_to_fp16, x = input_913_cast_fp16)[name = tensor<string, []>("input_915_cast_fp16")];
            tensor<fp16, [1, 192, 34]> softplus_152_cast_fp16 = softplus(x = input_915_cast_fp16)[name = tensor<string, []>("softplus_152_cast_fp16")];
            tensor<fp16, [1, 192, 34]> tanh_152_cast_fp16 = tanh(x = softplus_152_cast_fp16)[name = tensor<string, []>("tanh_152_cast_fp16")];
            tensor<fp16, [1, 192, 34]> input_917_cast_fp16 = mul(x = input_915_cast_fp16, y = tanh_152_cast_fp16)[name = tensor<string, []>("input_917_cast_fp16")];
            tensor<string, []> input_919_pad_type_0 = const()[name = tensor<string, []>("input_919_pad_type_0"), val = tensor<string, []>("custom")];
            tensor<int32, [2]> input_919_pad_0 = const()[name = tensor<string, []>("input_919_pad_0"), val = tensor<int32, [2]>([1, 1])];
            tensor<int32, [1]> input_919_strides_0 = const()[name = tensor<string, []>("input_919_strides_0"), val = tensor<int32, [1]>([1])];
            tensor<int32, [1]> input_919_dilations_0 = const()[name = tensor<string, []>("input_919_dilations_0"), val = tensor<int32, [1]>([1])];
            tensor<int32, []> input_919_groups_0 = const()[name = tensor<string, []>("input_919_groups_0"), val = tensor<int32, []>(1)];
            tensor<fp16, [192, 192, 3]> const_76_to_fp16 = const()[name = tensor<string, []>("const_76_to_fp16"), val = tensor<fp16, [192, 192, 3]>(BLOBFILE(path = tensor<string, []>("@model_path/weights/weight.bin"), offset = tensor<uint64, []>(18444672)))];
            tensor<fp16, [192]> const_77_to_fp16 = const()[name = tensor<string, []>("const_77_to_fp16"), val = tensor<fp16, [192]>(BLOBFILE(path = tensor<string, []>("@model_path/weights/weight.bin"), offset = tensor<uint64, []>(18665920)))];
            tensor<fp16, [1, 192, 34]> input_921_cast_fp16 = conv(bias = const_77_to_fp16, dilations = input_919_dilations_0, groups = input_919_groups_0, pad = input_919_pad_0, pad_type = input_919_pad_type_0, strides = input_919_strides_0, weight = const_76_to_fp16, x = input_917_cast_fp16)[name = tensor<string, []>("input_921_cast_fp16")];
            tensor<fp16, [1, 192, 34]> softplus_153_cast_fp16 = softplus(x = input_921_cast_fp16)[name = tensor<string, []>("softplus_153_cast_fp16")];
            tensor<fp16, [1, 192, 34]> tanh_153_cast_fp16 = tanh(x = softplus_153_cast_fp16)[name = tensor<string, []>("tanh_153_cast_fp16")];
            tensor<fp16, [1, 192, 34]> input_923_cast_fp16 = mul(x = input_921_cast_fp16, y = tanh_153_cast_fp16)[name = tensor<string, []>("input_923_cast_fp16")];
            tensor<string, []> x_77_pad_type_0 = const()[name = tensor<string, []>("x_77_pad_type_0"), val = tensor<string, []>("custom")];
            tensor<int32, [2]> x_77_pad_0 = const()[name = tensor<string, []>("x_77_pad_0"), val = tensor<int32, [2]>([1, 1])];
            tensor<int32, [1]> x_77_strides_0 = const()[name = tensor<string, []>("x_77_strides_0"), val = tensor<int32, [1]>([1])];
            tensor<int32, [1]> x_77_dilations_0 = const()[name = tensor<string, []>("x_77_dilations_0"), val = tensor<int32, [1]>([1])];
            tensor<int32, []> x_77_groups_0 = const()[name = tensor<string, []>("x_77_groups_0"), val = tensor<int32, []>(1)];
            tensor<fp16, [192, 192, 3]> brain_encoder_net_39_res_unit_5_weight_to_fp16 = const()[name = tensor<string, []>("brain_encoder_net_39_res_unit_5_weight_to_fp16"), val = tensor<fp16, [192, 192, 3]>(BLOBFILE(path = tensor<string, []>("@model_path/weights/weight.bin"), offset = tensor<uint64, []>(18666368)))];
            tensor<fp16, [1, 192, 34]> x_77_cast_fp16 = conv(dilations = x_77_dilations_0, groups = x_77_groups_0, pad = x_77_pad_0, pad_type = x_77_pad_type_0, strides = x_77_strides_0, weight = brain_encoder_net_39_res_unit_5_weight_to_fp16, x = input_923_cast_fp16)[name = tensor<string, []>("x_77_cast_fp16")];
            tensor<int32, [1]> input_925_axes_0 = const()[name = tensor<string, []>("input_925_axes_0"), val = tensor<int32, [1]>([-1])];
            tensor<bool, []> input_925_keep_dims_0 = const()[name = tensor<string, []>("input_925_keep_dims_0"), val = tensor<bool, []>(false)];
            tensor<fp16, [1, 192]> input_925_cast_fp16 = reduce_mean(axes = input_925_axes_0, keep_dims = input_925_keep_dims_0, x = x_77_cast_fp16)[name = tensor<string, []>("input_925_cast_fp16")];
            tensor<fp16, [12, 192]> brain_encoder_net_39_ca_shared_mlp_0_weight_to_fp16 = const()[name = tensor<string, []>("brain_encoder_net_39_ca_shared_mlp_0_weight_to_fp16"), val = tensor<fp16, [12, 192]>(BLOBFILE(path = tensor<string, []>("@model_path/weights/weight.bin"), offset = tensor<uint64, []>(18887616)))];
            tensor<fp16, [12]> brain_encoder_net_39_ca_shared_mlp_0_bias_to_fp16 = const()[name = tensor<string, []>("brain_encoder_net_39_ca_shared_mlp_0_bias_to_fp16"), val = tensor<fp16, [12]>(BLOBFILE(path = tensor<string, []>("@model_path/weights/weight.bin"), offset = tensor<uint64, []>(18892288)))];
            tensor<fp16, [1, 12]> linear_152_cast_fp16 = linear(bias = brain_encoder_net_39_ca_shared_mlp_0_bias_to_fp16, weight = brain_encoder_net_39_ca_shared_mlp_0_weight_to_fp16, x = input_925_cast_fp16)[name = tensor<string, []>("linear_152_cast_fp16")];
            tensor<fp16, [1, 12]> softplus_154_cast_fp16 = softplus(x = linear_152_cast_fp16)[name = tensor<string, []>("softplus_154_cast_fp16")];
            tensor<fp16, [1, 12]> tanh_154_cast_fp16 = tanh(x = softplus_154_cast_fp16)[name = tensor<string, []>("tanh_154_cast_fp16")];
            tensor<fp16, [1, 12]> input_929_cast_fp16 = mul(x = linear_152_cast_fp16, y = tanh_154_cast_fp16)[name = tensor<string, []>("input_929_cast_fp16")];
            tensor<fp16, [192, 12]> brain_encoder_net_39_ca_shared_mlp_2_weight_to_fp16 = const()[name = tensor<string, []>("brain_encoder_net_39_ca_shared_mlp_2_weight_to_fp16"), val = tensor<fp16, [192, 12]>(BLOBFILE(path = tensor<string, []>("@model_path/weights/weight.bin"), offset = tensor<uint64, []>(18892416)))];
            tensor<fp16, [192]> brain_encoder_net_39_ca_shared_mlp_2_bias_to_fp16 = const()[name = tensor<string, []>("brain_encoder_net_39_ca_shared_mlp_2_bias_to_fp16"), val = tensor<fp16, [192]>(BLOBFILE(path = tensor<string, []>("@model_path/weights/weight.bin"), offset = tensor<uint64, []>(18897088)))];
            tensor<fp16, [1, 192]> linear_153_cast_fp16 = linear(bias = brain_encoder_net_39_ca_shared_mlp_2_bias_to_fp16, weight = brain_encoder_net_39_ca_shared_mlp_2_weight_to_fp16, x = input_929_cast_fp16)[name = tensor<string, []>("linear_153_cast_fp16")];
            tensor<int32, [1]> input_931_axes_0 = const()[name = tensor<string, []>("input_931_axes_0"), val = tensor<int32, [1]>([-1])];
            tensor<fp16, [1, 192]> input_931_cast_fp16 = reduce_max(axes = input_931_axes_0, keep_dims = var_10, x = x_77_cast_fp16)[name = tensor<string, []>("input_931_cast_fp16")];
            tensor<fp16, [1, 12]> linear_154_cast_fp16 = linear(bias = brain_encoder_net_39_ca_shared_mlp_0_bias_to_fp16, weight = brain_encoder_net_39_ca_shared_mlp_0_weight_to_fp16, x = input_931_cast_fp16)[name = tensor<string, []>("linear_154_cast_fp16")];
            tensor<fp16, [1, 12]> softplus_155_cast_fp16 = softplus(x = linear_154_cast_fp16)[name = tensor<string, []>("softplus_155_cast_fp16")];
            tensor<fp16, [1, 12]> tanh_155_cast_fp16 = tanh(x = softplus_155_cast_fp16)[name = tensor<string, []>("tanh_155_cast_fp16")];
            tensor<fp16, [1, 12]> input_935_cast_fp16 = mul(x = linear_154_cast_fp16, y = tanh_155_cast_fp16)[name = tensor<string, []>("input_935_cast_fp16")];
            tensor<fp16, [1, 192]> linear_155_cast_fp16 = linear(bias = brain_encoder_net_39_ca_shared_mlp_2_bias_to_fp16, weight = brain_encoder_net_39_ca_shared_mlp_2_weight_to_fp16, x = input_935_cast_fp16)[name = tensor<string, []>("linear_155_cast_fp16")];
            tensor<fp16, [1, 192]> var_2322_cast_fp16 = add(x = linear_153_cast_fp16, y = linear_155_cast_fp16)[name = tensor<string, []>("op_2322_cast_fp16")];
            tensor<fp16, [1, 192]> weight_391_cast_fp16 = sigmoid(x = var_2322_cast_fp16)[name = tensor<string, []>("weight_391_cast_fp16")];
            tensor<int32, [1]> var_2324_axes_0 = const()[name = tensor<string, []>("op_2324_axes_0"), val = tensor<int32, [1]>([-1])];
            tensor<fp16, [1, 192, 1]> var_2324_cast_fp16 = expand_dims(axes = var_2324_axes_0, x = weight_391_cast_fp16)[name = tensor<string, []>("op_2324_cast_fp16")];
            tensor<fp16, [1, 192, 34]> out_77_cast_fp16 = mul(x = var_2324_cast_fp16, y = x_77_cast_fp16)[name = tensor<string, []>("out_77_cast_fp16")];
            tensor<fp16, [1, 192, 34]> input_937_cast_fp16 = add(x = out_77_cast_fp16, y = input_913_cast_fp16)[name = tensor<string, []>("input_937_cast_fp16")];
            tensor<fp16, [192]> brain_encoder_net_40_res_unit_0_running_mean_to_fp16 = const()[name = tensor<string, []>("brain_encoder_net_40_res_unit_0_running_mean_to_fp16"), val = tensor<fp16, [192]>(BLOBFILE(path = tensor<string, []>("@model_path/weights/weight.bin"), offset = tensor<uint64, []>(18897536)))];
            tensor<fp16, [192]> brain_encoder_net_40_res_unit_0_running_var_to_fp16 = const()[name = tensor<string, []>("brain_encoder_net_40_res_unit_0_running_var_to_fp16"), val = tensor<fp16, [192]>(BLOBFILE(path = tensor<string, []>("@model_path/weights/weight.bin"), offset = tensor<uint64, []>(18897984)))];
            tensor<fp16, [192]> brain_encoder_net_40_res_unit_0_weight_to_fp16 = const()[name = tensor<string, []>("brain_encoder_net_40_res_unit_0_weight_to_fp16"), val = tensor<fp16, [192]>(BLOBFILE(path = tensor<string, []>("@model_path/weights/weight.bin"), offset = tensor<uint64, []>(18898432)))];
            tensor<fp16, [192]> brain_encoder_net_40_res_unit_0_bias_to_fp16 = const()[name = tensor<string, []>("brain_encoder_net_40_res_unit_0_bias_to_fp16"), val = tensor<fp16, [192]>(BLOBFILE(path = tensor<string, []>("@model_path/weights/weight.bin"), offset = tensor<uint64, []>(18898880)))];
            tensor<fp16, [1, 192, 34]> input_939_cast_fp16 = batch_norm(beta = brain_encoder_net_40_res_unit_0_bias_to_fp16, epsilon = var_6_to_fp16, gamma = brain_encoder_net_40_res_unit_0_weight_to_fp16, mean = brain_encoder_net_40_res_unit_0_running_mean_to_fp16, variance = brain_encoder_net_40_res_unit_0_running_var_to_fp16, x = input_937_cast_fp16)[name = tensor<string, []>("input_939_cast_fp16")];
            tensor<fp16, [1, 192, 34]> softplus_156_cast_fp16 = softplus(x = input_939_cast_fp16)[name = tensor<string, []>("softplus_156_cast_fp16")];
            tensor<fp16, [1, 192, 34]> tanh_156_cast_fp16 = tanh(x = softplus_156_cast_fp16)[name = tensor<string, []>("tanh_156_cast_fp16")];
            tensor<fp16, [1, 192, 34]> input_941_cast_fp16 = mul(x = input_939_cast_fp16, y = tanh_156_cast_fp16)[name = tensor<string, []>("input_941_cast_fp16")];
            tensor<string, []> input_943_pad_type_0 = const()[name = tensor<string, []>("input_943_pad_type_0"), val = tensor<string, []>("custom")];
            tensor<int32, [2]> input_943_pad_0 = const()[name = tensor<string, []>("input_943_pad_0"), val = tensor<int32, [2]>([1, 1])];
            tensor<int32, [1]> input_943_strides_0 = const()[name = tensor<string, []>("input_943_strides_0"), val = tensor<int32, [1]>([1])];
            tensor<int32, [1]> input_943_dilations_0 = const()[name = tensor<string, []>("input_943_dilations_0"), val = tensor<int32, [1]>([1])];
            tensor<int32, []> input_943_groups_0 = const()[name = tensor<string, []>("input_943_groups_0"), val = tensor<int32, []>(1)];
            tensor<fp16, [192, 192, 3]> const_78_to_fp16 = const()[name = tensor<string, []>("const_78_to_fp16"), val = tensor<fp16, [192, 192, 3]>(BLOBFILE(path = tensor<string, []>("@model_path/weights/weight.bin"), offset = tensor<uint64, []>(18899328)))];
            tensor<fp16, [192]> const_79_to_fp16 = const()[name = tensor<string, []>("const_79_to_fp16"), val = tensor<fp16, [192]>(BLOBFILE(path = tensor<string, []>("@model_path/weights/weight.bin"), offset = tensor<uint64, []>(19120576)))];
            tensor<fp16, [1, 192, 34]> input_945_cast_fp16 = conv(bias = const_79_to_fp16, dilations = input_943_dilations_0, groups = input_943_groups_0, pad = input_943_pad_0, pad_type = input_943_pad_type_0, strides = input_943_strides_0, weight = const_78_to_fp16, x = input_941_cast_fp16)[name = tensor<string, []>("input_945_cast_fp16")];
            tensor<fp16, [1, 192, 34]> softplus_157_cast_fp16 = softplus(x = input_945_cast_fp16)[name = tensor<string, []>("softplus_157_cast_fp16")];
            tensor<fp16, [1, 192, 34]> tanh_157_cast_fp16 = tanh(x = softplus_157_cast_fp16)[name = tensor<string, []>("tanh_157_cast_fp16")];
            tensor<fp16, [1, 192, 34]> input_947_cast_fp16 = mul(x = input_945_cast_fp16, y = tanh_157_cast_fp16)[name = tensor<string, []>("input_947_cast_fp16")];
            tensor<string, []> x_pad_type_0 = const()[name = tensor<string, []>("x_pad_type_0"), val = tensor<string, []>("custom")];
            tensor<int32, [2]> x_pad_0 = const()[name = tensor<string, []>("x_pad_0"), val = tensor<int32, [2]>([1, 1])];
            tensor<int32, [1]> x_strides_0 = const()[name = tensor<string, []>("x_strides_0"), val = tensor<int32, [1]>([1])];
            tensor<int32, [1]> x_dilations_0 = const()[name = tensor<string, []>("x_dilations_0"), val = tensor<int32, [1]>([1])];
            tensor<int32, []> x_groups_0 = const()[name = tensor<string, []>("x_groups_0"), val = tensor<int32, []>(1)];
            tensor<fp16, [192, 192, 3]> brain_encoder_net_40_res_unit_5_weight_to_fp16 = const()[name = tensor<string, []>("brain_encoder_net_40_res_unit_5_weight_to_fp16"), val = tensor<fp16, [192, 192, 3]>(BLOBFILE(path = tensor<string, []>("@model_path/weights/weight.bin"), offset = tensor<uint64, []>(19121024)))];
            tensor<fp16, [1, 192, 34]> x_cast_fp16 = conv(dilations = x_dilations_0, groups = x_groups_0, pad = x_pad_0, pad_type = x_pad_type_0, strides = x_strides_0, weight = brain_encoder_net_40_res_unit_5_weight_to_fp16, x = input_947_cast_fp16)[name = tensor<string, []>("x_cast_fp16")];
            tensor<int32, [1]> input_949_axes_0 = const()[name = tensor<string, []>("input_949_axes_0"), val = tensor<int32, [1]>([-1])];
            tensor<bool, []> input_949_keep_dims_0 = const()[name = tensor<string, []>("input_949_keep_dims_0"), val = tensor<bool, []>(false)];
            tensor<fp16, [1, 192]> input_949_cast_fp16 = reduce_mean(axes = input_949_axes_0, keep_dims = input_949_keep_dims_0, x = x_cast_fp16)[name = tensor<string, []>("input_949_cast_fp16")];
            tensor<fp16, [12, 192]> brain_encoder_net_40_ca_shared_mlp_0_weight_to_fp16 = const()[name = tensor<string, []>("brain_encoder_net_40_ca_shared_mlp_0_weight_to_fp16"), val = tensor<fp16, [12, 192]>(BLOBFILE(path = tensor<string, []>("@model_path/weights/weight.bin"), offset = tensor<uint64, []>(19342272)))];
            tensor<fp16, [12]> brain_encoder_net_40_ca_shared_mlp_0_bias_to_fp16 = const()[name = tensor<string, []>("brain_encoder_net_40_ca_shared_mlp_0_bias_to_fp16"), val = tensor<fp16, [12]>(BLOBFILE(path = tensor<string, []>("@model_path/weights/weight.bin"), offset = tensor<uint64, []>(19346944)))];
            tensor<fp16, [1, 12]> linear_156_cast_fp16 = linear(bias = brain_encoder_net_40_ca_shared_mlp_0_bias_to_fp16, weight = brain_encoder_net_40_ca_shared_mlp_0_weight_to_fp16, x = input_949_cast_fp16)[name = tensor<string, []>("linear_156_cast_fp16")];
            tensor<fp16, [1, 12]> softplus_158_cast_fp16 = softplus(x = linear_156_cast_fp16)[name = tensor<string, []>("softplus_158_cast_fp16")];
            tensor<fp16, [1, 12]> tanh_158_cast_fp16 = tanh(x = softplus_158_cast_fp16)[name = tensor<string, []>("tanh_158_cast_fp16")];
            tensor<fp16, [1, 12]> input_953_cast_fp16 = mul(x = linear_156_cast_fp16, y = tanh_158_cast_fp16)[name = tensor<string, []>("input_953_cast_fp16")];
            tensor<fp16, [192, 12]> brain_encoder_net_40_ca_shared_mlp_2_weight_to_fp16 = const()[name = tensor<string, []>("brain_encoder_net_40_ca_shared_mlp_2_weight_to_fp16"), val = tensor<fp16, [192, 12]>(BLOBFILE(path = tensor<string, []>("@model_path/weights/weight.bin"), offset = tensor<uint64, []>(19347072)))];
            tensor<fp16, [192]> brain_encoder_net_40_ca_shared_mlp_2_bias_to_fp16 = const()[name = tensor<string, []>("brain_encoder_net_40_ca_shared_mlp_2_bias_to_fp16"), val = tensor<fp16, [192]>(BLOBFILE(path = tensor<string, []>("@model_path/weights/weight.bin"), offset = tensor<uint64, []>(19351744)))];
            tensor<fp16, [1, 192]> linear_157_cast_fp16 = linear(bias = brain_encoder_net_40_ca_shared_mlp_2_bias_to_fp16, weight = brain_encoder_net_40_ca_shared_mlp_2_weight_to_fp16, x = input_953_cast_fp16)[name = tensor<string, []>("linear_157_cast_fp16")];
            tensor<int32, [1]> input_955_axes_0 = const()[name = tensor<string, []>("input_955_axes_0"), val = tensor<int32, [1]>([-1])];
            tensor<fp16, [1, 192]> input_955_cast_fp16 = reduce_max(axes = input_955_axes_0, keep_dims = var_10, x = x_cast_fp16)[name = tensor<string, []>("input_955_cast_fp16")];
            tensor<fp16, [1, 12]> linear_158_cast_fp16 = linear(bias = brain_encoder_net_40_ca_shared_mlp_0_bias_to_fp16, weight = brain_encoder_net_40_ca_shared_mlp_0_weight_to_fp16, x = input_955_cast_fp16)[name = tensor<string, []>("linear_158_cast_fp16")];
            tensor<fp16, [1, 12]> softplus_159_cast_fp16 = softplus(x = linear_158_cast_fp16)[name = tensor<string, []>("softplus_159_cast_fp16")];
            tensor<fp16, [1, 12]> tanh_159_cast_fp16 = tanh(x = softplus_159_cast_fp16)[name = tensor<string, []>("tanh_159_cast_fp16")];
            tensor<fp16, [1, 12]> input_959_cast_fp16 = mul(x = linear_158_cast_fp16, y = tanh_159_cast_fp16)[name = tensor<string, []>("input_959_cast_fp16")];
            tensor<fp16, [1, 192]> linear_159_cast_fp16 = linear(bias = brain_encoder_net_40_ca_shared_mlp_2_bias_to_fp16, weight = brain_encoder_net_40_ca_shared_mlp_2_weight_to_fp16, x = input_959_cast_fp16)[name = tensor<string, []>("linear_159_cast_fp16")];
            tensor<fp16, [1, 192]> var_2380_cast_fp16 = add(x = linear_157_cast_fp16, y = linear_159_cast_fp16)[name = tensor<string, []>("op_2380_cast_fp16")];
            tensor<fp16, [1, 192]> weight_401_cast_fp16 = sigmoid(x = var_2380_cast_fp16)[name = tensor<string, []>("weight_401_cast_fp16")];
            tensor<int32, [1]> var_2382_axes_0 = const()[name = tensor<string, []>("op_2382_axes_0"), val = tensor<int32, [1]>([-1])];
            tensor<fp16, [1, 192, 1]> var_2382_cast_fp16 = expand_dims(axes = var_2382_axes_0, x = weight_401_cast_fp16)[name = tensor<string, []>("op_2382_cast_fp16")];
            tensor<fp16, [1, 192, 34]> out_cast_fp16 = mul(x = var_2382_cast_fp16, y = x_cast_fp16)[name = tensor<string, []>("out_cast_fp16")];
            tensor<fp16, [1, 192, 34]> input_961_cast_fp16 = add(x = out_cast_fp16, y = input_937_cast_fp16)[name = tensor<string, []>("input_961_cast_fp16")];
            tensor<fp16, [192]> brain_encoder_net_41_running_mean_to_fp16 = const()[name = tensor<string, []>("brain_encoder_net_41_running_mean_to_fp16"), val = tensor<fp16, [192]>(BLOBFILE(path = tensor<string, []>("@model_path/weights/weight.bin"), offset = tensor<uint64, []>(19352192)))];
            tensor<fp16, [192]> brain_encoder_net_41_running_var_to_fp16 = const()[name = tensor<string, []>("brain_encoder_net_41_running_var_to_fp16"), val = tensor<fp16, [192]>(BLOBFILE(path = tensor<string, []>("@model_path/weights/weight.bin"), offset = tensor<uint64, []>(19352640)))];
            tensor<fp16, [192]> brain_encoder_net_41_weight_to_fp16 = const()[name = tensor<string, []>("brain_encoder_net_41_weight_to_fp16"), val = tensor<fp16, [192]>(BLOBFILE(path = tensor<string, []>("@model_path/weights/weight.bin"), offset = tensor<uint64, []>(19353088)))];
            tensor<fp16, [192]> brain_encoder_net_41_bias_to_fp16 = const()[name = tensor<string, []>("brain_encoder_net_41_bias_to_fp16"), val = tensor<fp16, [192]>(BLOBFILE(path = tensor<string, []>("@model_path/weights/weight.bin"), offset = tensor<uint64, []>(19353536)))];
            tensor<fp16, [1, 192, 34]> input_963_cast_fp16 = batch_norm(beta = brain_encoder_net_41_bias_to_fp16, epsilon = var_6_to_fp16, gamma = brain_encoder_net_41_weight_to_fp16, mean = brain_encoder_net_41_running_mean_to_fp16, variance = brain_encoder_net_41_running_var_to_fp16, x = input_961_cast_fp16)[name = tensor<string, []>("input_963_cast_fp16")];
            tensor<fp16, [1, 192, 34]> softplus_160_cast_fp16 = softplus(x = input_963_cast_fp16)[name = tensor<string, []>("softplus_160_cast_fp16")];
            tensor<fp16, [1, 192, 34]> tanh_160_cast_fp16 = tanh(x = softplus_160_cast_fp16)[name = tensor<string, []>("tanh_160_cast_fp16")];
            tensor<fp16, [1, 192, 34]> input_965_cast_fp16 = mul(x = input_963_cast_fp16, y = tanh_160_cast_fp16)[name = tensor<string, []>("input_965_cast_fp16")];
            tensor<string, []> input_967_pad_type_0 = const()[name = tensor<string, []>("input_967_pad_type_0"), val = tensor<string, []>("custom")];
            tensor<int32, [2]> input_967_pad_0 = const()[name = tensor<string, []>("input_967_pad_0"), val = tensor<int32, [2]>([1, 1])];
            tensor<int32, [1]> input_967_strides_0 = const()[name = tensor<string, []>("input_967_strides_0"), val = tensor<int32, [1]>([1])];
            tensor<int32, [1]> input_967_dilations_0 = const()[name = tensor<string, []>("input_967_dilations_0"), val = tensor<int32, [1]>([1])];
            tensor<int32, []> input_967_groups_0 = const()[name = tensor<string, []>("input_967_groups_0"), val = tensor<int32, []>(1)];
            tensor<fp16, [32, 192, 3]> brain_encoder_net_43_weight_to_fp16 = const()[name = tensor<string, []>("brain_encoder_net_43_weight_to_fp16"), val = tensor<fp16, [32, 192, 3]>(BLOBFILE(path = tensor<string, []>("@model_path/weights/weight.bin"), offset = tensor<uint64, []>(19353984)))];
            tensor<fp16, [32]> brain_encoder_net_43_bias_to_fp16 = const()[name = tensor<string, []>("brain_encoder_net_43_bias_to_fp16"), val = tensor<fp16, [32]>(BLOBFILE(path = tensor<string, []>("@model_path/weights/weight.bin"), offset = tensor<uint64, []>(19390912)))];
            tensor<fp16, [1, 32, 34]> input_967_cast_fp16 = conv(bias = brain_encoder_net_43_bias_to_fp16, dilations = input_967_dilations_0, groups = input_967_groups_0, pad = input_967_pad_0, pad_type = input_967_pad_type_0, strides = input_967_strides_0, weight = brain_encoder_net_43_weight_to_fp16, x = input_965_cast_fp16)[name = tensor<string, []>("input_967_cast_fp16")];
            tensor<fp16, [1, 32, 34]> softplus_161_cast_fp16 = softplus(x = input_967_cast_fp16)[name = tensor<string, []>("softplus_161_cast_fp16")];
            tensor<fp16, [1, 32, 34]> tanh_161_cast_fp16 = tanh(x = softplus_161_cast_fp16)[name = tensor<string, []>("tanh_161_cast_fp16")];
            tensor<fp16, [1, 32, 34]> input_969_cast_fp16 = mul(x = input_967_cast_fp16, y = tanh_161_cast_fp16)[name = tensor<string, []>("input_969_cast_fp16")];
            tensor<int32, [2]> concat_0 = const()[name = tensor<string, []>("concat_0"), val = tensor<int32, [2]>([1, 1088])];
            tensor<fp16, [1, 1088]> input_971_cast_fp16 = reshape(shape = concat_0, x = input_969_cast_fp16)[name = tensor<string, []>("input_971_cast_fp16")];
            tensor<fp16, [1024, 1088]> brain_encoder_net_46_weight_to_fp16 = const()[name = tensor<string, []>("brain_encoder_net_46_weight_to_fp16"), val = tensor<fp16, [1024, 1088]>(BLOBFILE(path = tensor<string, []>("@model_path/weights/weight.bin"), offset = tensor<uint64, []>(19391040)))];
            tensor<fp16, [1024]> brain_encoder_net_46_bias_to_fp16 = const()[name = tensor<string, []>("brain_encoder_net_46_bias_to_fp16"), val = tensor<fp16, [1024]>(BLOBFILE(path = tensor<string, []>("@model_path/weights/weight.bin"), offset = tensor<uint64, []>(21619328)))];
            tensor<fp16, [1, 1024]> linear_160_cast_fp16 = linear(bias = brain_encoder_net_46_bias_to_fp16, weight = brain_encoder_net_46_weight_to_fp16, x = input_971_cast_fp16)[name = tensor<string, []>("linear_160_cast_fp16")];
            tensor<fp16, [1, 1024]> softplus_162_cast_fp16 = softplus(x = linear_160_cast_fp16)[name = tensor<string, []>("softplus_162_cast_fp16")];
            tensor<fp16, [1, 1024]> tanh_162_cast_fp16 = tanh(x = softplus_162_cast_fp16)[name = tensor<string, []>("tanh_162_cast_fp16")];
            tensor<fp16, [1, 1024]> input_cast_fp16 = mul(x = linear_160_cast_fp16, y = tanh_162_cast_fp16)[name = tensor<string, []>("input_cast_fp16")];
            tensor<fp16, [47, 1024]> dqn_net_weight_to_fp16 = const()[name = tensor<string, []>("dqn_net_weight_to_fp16"), val = tensor<fp16, [47, 1024]>(BLOBFILE(path = tensor<string, []>("@model_path/weights/weight.bin"), offset = tensor<uint64, []>(21621440)))];
            tensor<fp16, [47]> dqn_net_bias_to_fp16 = const()[name = tensor<string, []>("dqn_net_bias_to_fp16"), val = tensor<fp16, [47]>(BLOBFILE(path = tensor<string, []>("@model_path/weights/weight.bin"), offset = tensor<uint64, []>(21717760)))];
            tensor<fp16, [1, 47]> linear_161_cast_fp16 = linear(bias = dqn_net_bias_to_fp16, weight = dqn_net_weight_to_fp16, x = input_cast_fp16)[name = tensor<string, []>("linear_161_cast_fp16")];
            tensor<int32, [2]> var_2417 = const()[name = tensor<string, []>("op_2417"), val = tensor<int32, [2]>([1, 46])];
            tensor<int32, []> var_2418_axis_0 = const()[name = tensor<string, []>("op_2418_axis_0"), val = tensor<int32, []>(-1)];
            tensor<fp16, [1, 1]> var_2418_cast_fp16_0, tensor<fp16, [1, 46]> var_2418_cast_fp16_1 = split(axis = var_2418_axis_0, split_sizes = var_2417, x = linear_161_cast_fp16)[name = tensor<string, []>("op_2418_cast_fp16")];
            tensor<string, []> mask_to_fp16_dtype_0 = const()[name = tensor<string, []>("mask_to_fp16_dtype_0"), val = tensor<string, []>("fp16")];
            tensor<fp16, [1, 46]> mask_to_fp16 = cast(dtype = mask_to_fp16_dtype_0, x = mask)[name = tensor<string, []>("cast_6")];
            tensor<fp16, [1, 46]> var_2421_cast_fp16 = mul(x = var_2418_cast_fp16_1, y = mask_to_fp16)[name = tensor<string, []>("op_2421_cast_fp16")];
            tensor<int32, [1]> a_sum_axes_0 = const()[name = tensor<string, []>("a_sum_axes_0"), val = tensor<int32, [1]>([-1])];
            tensor<bool, []> a_sum_keep_dims_0 = const()[name = tensor<string, []>("a_sum_keep_dims_0"), val = tensor<bool, []>(true)];
            tensor<fp16, [1, 1]> a_sum_cast_fp16 = reduce_sum(axes = a_sum_axes_0, keep_dims = a_sum_keep_dims_0, x = var_2421_cast_fp16)[name = tensor<string, []>("a_sum_cast_fp16")];
            tensor<int32, [1]> mask_sum_axes_0 = const()[name = tensor<string, []>("mask_sum_axes_0"), val = tensor<int32, [1]>([-1])];
            tensor<bool, []> mask_sum_keep_dims_0 = const()[name = tensor<string, []>("mask_sum_keep_dims_0"), val = tensor<bool, []>(true)];
            tensor<fp16, [1, 1]> mask_sum_cast_fp16 = reduce_sum(axes = mask_sum_axes_0, keep_dims = mask_sum_keep_dims_0, x = mask_to_fp16)[name = tensor<string, []>("mask_sum_cast_fp16")];
            tensor<fp16, [1, 1]> a_mean_cast_fp16 = real_div(x = a_sum_cast_fp16, y = mask_sum_cast_fp16)[name = tensor<string, []>("a_mean_cast_fp16")];
            tensor<fp16, []> var_2404_to_fp16 = const()[name = tensor<string, []>("op_2404_to_fp16"), val = tensor<fp16, []>(0x1p+0)];
            tensor<fp16, [1, 46]> inv_mask_cast_fp16 = sub(x = var_2404_to_fp16, y = mask_to_fp16)[name = tensor<string, []>("inv_mask_cast_fp16")];
            tensor<string, []> inv_mask_cast_fp16_to_fp32_dtype_0 = const()[name = tensor<string, []>("inv_mask_cast_fp16_to_fp32_dtype_0"), val = tensor<string, []>("fp32")];
            tensor<fp16, [1, 46]> var_2428_cast_fp16 = add(x = var_2418_cast_fp16_0, y = var_2418_cast_fp16_1)[name = tensor<string, []>("op_2428_cast_fp16")];
            tensor<fp16, [1, 46]> var_2429_cast_fp16 = sub(x = var_2428_cast_fp16, y = a_mean_cast_fp16)[name = tensor<string, []>("op_2429_cast_fp16")];
            tensor<fp32, []> var_2430 = const()[name = tensor<string, []>("op_2430"), val = tensor<fp32, []>(-0x1.dcd65p+29)];
            tensor<fp32, [1, 46]> inv_mask_cast_fp16_to_fp32 = cast(dtype = inv_mask_cast_fp16_to_fp32_dtype_0, x = inv_mask_cast_fp16)[name = tensor<string, []>("cast_5")];
            tensor<fp32, [1, 46]> var_2431 = mul(x = inv_mask_cast_fp16_to_fp32, y = var_2430)[name = tensor<string, []>("op_2431")];
            tensor<string, []> var_2431_to_fp16_dtype_0 = const()[name = tensor<string, []>("op_2431_to_fp16_dtype_0"), val = tensor<string, []>("fp16")];
            tensor<fp16, [1, 46]> var_2431_to_fp16 = cast(dtype = var_2431_to_fp16_dtype_0, x = var_2431)[name = tensor<string, []>("cast_4")];
            tensor<fp16, [1, 46]> var_2432_cast_fp16 = add(x = var_2429_cast_fp16, y = var_2431_to_fp16)[name = tensor<string, []>("op_2432_cast_fp16")];
            tensor<string, []> var_2432_cast_fp16_to_fp32_dtype_0 = const()[name = tensor<string, []>("op_2432_cast_fp16_to_fp32_dtype_0"), val = tensor<string, []>("fp32")];
            tensor<fp32, [1, 46]> q_values = cast(dtype = var_2432_cast_fp16_to_fp32_dtype_0, x = var_2432_cast_fp16)[name = tensor<string, []>("cast_3")];
        } -> (q_values);
}